…
model_summary: 
===============================================================================================================================================================================
Layer (type:depth-idx)                             Input Shape               Output Shape              Param #                   Kernel Shape              Mult-Adds
===============================================================================================================================================================================
├─MobileNetV2_3D_featExt: 1-1                      [-1, 1, 48, 128, 128]     [-1, 24, 24, 32, 32]      --                        --                        --
|    └─Sequential: 2                               []                        []                        --                        --                        --
|    |    └─ConvBNReLU: 3-1                        [-1, 1, 48, 128, 128]     [-1, 32, 48, 64, 64]      --                        --                        --
|    |    |    └─Conv3d: 4-1                       [-1, 1, 48, 128, 128]     [-1, 32, 48, 64, 64]      864                       [1, 32, 3, 3, 3]          169,869,312
|    |    |    └─BatchNorm2d: 4-2                  [-1, 32, 48, 64, 64]      [-1, 32, 48, 64, 64]      64                        [32]                      32
|    |    |    └─ReLU6: 4-3                        [-1, 32, 48, 64, 64]      [-1, 32, 48, 64, 64]      --                        --                        --
|    |    └─InvertedResidual: 3-2                  [-1, 32, 48, 64, 64]      [-1, 16, 48, 64, 64]      --                        --                        --
|    |    |    └─Sequential: 4-4                   [-1, 32, 48, 64, 64]      [-1, 16, 48, 64, 64]      --                        --                        --
|    |    |    |    └─ConvBNReLU: 5-1              [-1, 32, 48, 64, 64]      [-1, 32, 48, 64, 64]      --                        --                        --
|    |    |    |    |    └─Conv3d: 6-1             [-1, 32, 48, 64, 64]      [-1, 32, 48, 64, 64]      864                       [1, 32, 3, 3, 3]          169,869,312
|    |    |    |    |    └─BatchNorm2d: 6-2        [-1, 32, 48, 64, 64]      [-1, 32, 48, 64, 64]      64                        [32]                      32
|    |    |    |    |    └─ReLU6: 6-3              [-1, 32, 48, 64, 64]      [-1, 32, 48, 64, 64]      --                        --                        --
|    |    |    |    └─Conv3d: 5-2                  [-1, 32, 48, 64, 64]      [-1, 16, 48, 64, 64]      512                       [32, 16, 1, 1, 1]         100,663,296
|    |    |    |    └─BatchNorm2d: 5-3             [-1, 16, 48, 64, 64]      [-1, 16, 48, 64, 64]      32                        [16]                      16
|    |    └─InvertedResidual: 3-3                  [-1, 16, 48, 64, 64]      [-1, 24, 24, 32, 32]      --                        --                        --
|    |    |    └─Sequential: 4-5                   [-1, 16, 48, 64, 64]      [-1, 24, 24, 32, 32]      --                        --                        --
|    |    |    |    └─ConvBNReLU: 5-4              [-1, 16, 48, 64, 64]      [-1, 96, 48, 64, 64]      --                        --                        --
|    |    |    |    |    └─Conv3d: 6-4             [-1, 16, 48, 64, 64]      [-1, 96, 48, 64, 64]      1,536                     [16, 96, 1, 1, 1]         301,989,888
|    |    |    |    |    └─BatchNorm2d: 6-5        [-1, 96, 48, 64, 64]      [-1, 96, 48, 64, 64]      192                       [96]                      96
|    |    |    |    |    └─ReLU6: 6-6              [-1, 96, 48, 64, 64]      [-1, 96, 48, 64, 64]      --                        --                        --
|    |    |    |    └─ConvBNReLU: 5-5              [-1, 96, 48, 64, 64]      [-1, 96, 24, 32, 32]      --                        --                        --
|    |    |    |    |    └─Conv3d: 6-7             [-1, 96, 48, 64, 64]      [-1, 96, 24, 32, 32]      2,592                     [1, 96, 3, 3, 3]          63,700,992
|    |    |    |    |    └─BatchNorm2d: 6-8        [-1, 96, 24, 32, 32]      [-1, 96, 24, 32, 32]      192                       [96]                      96
|    |    |    |    |    └─ReLU6: 6-9              [-1, 96, 24, 32, 32]      [-1, 96, 24, 32, 32]      --                        --                        --
|    |    |    |    └─Conv3d: 5-6                  [-1, 96, 24, 32, 32]      [-1, 24, 24, 32, 32]      2,304                     [96, 24, 1, 1, 1]         56,623,104
|    |    |    |    └─BatchNorm2d: 5-7             [-1, 24, 24, 32, 32]      [-1, 24, 24, 32, 32]      48                        [24]                      24
|    |    └─InvertedResidual: 3-4                  [-1, 24, 24, 32, 32]      [-1, 24, 24, 32, 32]      --                        --                        --
|    |    |    └─Sequential: 4-6                   [-1, 24, 24, 32, 32]      [-1, 24, 24, 32, 32]      --                        --                        --
|    |    |    |    └─ConvBNReLU: 5-8              [-1, 24, 24, 32, 32]      [-1, 144, 24, 32, 32]     --                        --                        --
|    |    |    |    |    └─Conv3d: 6-10            [-1, 24, 24, 32, 32]      [-1, 144, 24, 32, 32]     3,456                     [24, 144, 1, 1, 1]        84,934,656
|    |    |    |    |    └─BatchNorm2d: 6-11       [-1, 144, 24, 32, 32]     [-1, 144, 24, 32, 32]     288                       [144]                     144
|    |    |    |    |    └─ReLU6: 6-12             [-1, 144, 24, 32, 32]     [-1, 144, 24, 32, 32]     --                        --                        --
|    |    |    |    └─ConvBNReLU: 5-9              [-1, 144, 24, 32, 32]     [-1, 144, 24, 32, 32]     --                        --                        --
|    |    |    |    |    └─Conv3d: 6-13            [-1, 144, 24, 32, 32]     [-1, 144, 24, 32, 32]     3,888                     [1, 144, 3, 3, 3]         95,551,488
|    |    |    |    |    └─BatchNorm2d: 6-14       [-1, 144, 24, 32, 32]     [-1, 144, 24, 32, 32]     288                       [144]                     144
|    |    |    |    |    └─ReLU6: 6-15             [-1, 144, 24, 32, 32]     [-1, 144, 24, 32, 32]     --                        --                        --
|    |    |    |    └─Conv3d: 5-10                 [-1, 144, 24, 32, 32]     [-1, 24, 24, 32, 32]      3,456                     [144, 24, 1, 1, 1]        84,934,656
|    |    |    |    └─BatchNorm2d: 5-11            [-1, 24, 24, 32, 32]      [-1, 24, 24, 32, 32]      48                        [24]                      24
|    |    └─InvertedResidual: 3-5                  [-1, 24, 24, 32, 32]      [-1, 32, 12, 16, 16]      --                        --                        --
|    |    |    └─Sequential: 4-7                   [-1, 24, 24, 32, 32]      [-1, 32, 12, 16, 16]      --                        --                        --
|    |    |    |    └─ConvBNReLU: 5-12             [-1, 24, 24, 32, 32]      [-1, 144, 24, 32, 32]     --                        --                        --
|    |    |    |    |    └─Conv3d: 6-16            [-1, 24, 24, 32, 32]      [-1, 144, 24, 32, 32]     3,456                     [24, 144, 1, 1, 1]        84,934,656
|    |    |    |    |    └─BatchNorm2d: 6-17       [-1, 144, 24, 32, 32]     [-1, 144, 24, 32, 32]     288                       [144]                     144
|    |    |    |    |    └─ReLU6: 6-18             [-1, 144, 24, 32, 32]     [-1, 144, 24, 32, 32]     --                        --                        --
|    |    |    |    └─ConvBNReLU: 5-13             [-1, 144, 24, 32, 32]     [-1, 144, 12, 16, 16]     --                        --                        --
|    |    |    |    |    └─Conv3d: 6-19            [-1, 144, 24, 32, 32]     [-1, 144, 12, 16, 16]     3,888                     [1, 144, 3, 3, 3]         11,943,936
|    |    |    |    |    └─BatchNorm2d: 6-20       [-1, 144, 12, 16, 16]     [-1, 144, 12, 16, 16]     288                       [144]                     144
|    |    |    |    |    └─ReLU6: 6-21             [-1, 144, 12, 16, 16]     [-1, 144, 12, 16, 16]     --                        --                        --
|    |    |    |    └─Conv3d: 5-14                 [-1, 144, 12, 16, 16]     [-1, 32, 12, 16, 16]      4,608                     [144, 32, 1, 1, 1]        14,155,776
|    |    |    |    └─BatchNorm2d: 5-15            [-1, 32, 12, 16, 16]      [-1, 32, 12, 16, 16]      64                        [32]                      32
|    |    └─InvertedResidual: 3-6                  [-1, 32, 12, 16, 16]      [-1, 32, 12, 16, 16]      --                        --                        --
|    |    |    └─Sequential: 4-8                   [-1, 32, 12, 16, 16]      [-1, 32, 12, 16, 16]      --                        --                        --
|    |    |    |    └─ConvBNReLU: 5-16             [-1, 32, 12, 16, 16]      [-1, 192, 12, 16, 16]     --                        --                        --
|    |    |    |    |    └─Conv3d: 6-22            [-1, 32, 12, 16, 16]      [-1, 192, 12, 16, 16]     6,144                     [32, 192, 1, 1, 1]        18,874,368
|    |    |    |    |    └─BatchNorm2d: 6-23       [-1, 192, 12, 16, 16]     [-1, 192, 12, 16, 16]     384                       [192]                     192
|    |    |    |    |    └─ReLU6: 6-24             [-1, 192, 12, 16, 16]     [-1, 192, 12, 16, 16]     --                        --                        --
|    |    |    |    └─ConvBNReLU: 5-17             [-1, 192, 12, 16, 16]     [-1, 192, 12, 16, 16]     --                        --                        --
|    |    |    |    |    └─Conv3d: 6-25            [-1, 192, 12, 16, 16]     [-1, 192, 12, 16, 16]     5,184                     [1, 192, 3, 3, 3]         15,925,248
|    |    |    |    |    └─BatchNorm2d: 6-26       [-1, 192, 12, 16, 16]     [-1, 192, 12, 16, 16]     384                       [192]                     192
|    |    |    |    |    └─ReLU6: 6-27             [-1, 192, 12, 16, 16]     [-1, 192, 12, 16, 16]     --                        --                        --
|    |    |    |    └─Conv3d: 5-18                 [-1, 192, 12, 16, 16]     [-1, 32, 12, 16, 16]      6,144                     [192, 32, 1, 1, 1]        18,874,368
|    |    |    |    └─BatchNorm2d: 5-19            [-1, 32, 12, 16, 16]      [-1, 32, 12, 16, 16]      64                        [32]                      32
|    |    └─InvertedResidual: 3-7                  [-1, 32, 12, 16, 16]      [-1, 32, 12, 16, 16]      --                        --                        --
|    |    |    └─Sequential: 4-9                   [-1, 32, 12, 16, 16]      [-1, 32, 12, 16, 16]      --                        --                        --
|    |    |    |    └─ConvBNReLU: 5-20             [-1, 32, 12, 16, 16]      [-1, 192, 12, 16, 16]     --                        --                        --
|    |    |    |    |    └─Conv3d: 6-28            [-1, 32, 12, 16, 16]      [-1, 192, 12, 16, 16]     6,144                     [32, 192, 1, 1, 1]        18,874,368
|    |    |    |    |    └─BatchNorm2d: 6-29       [-1, 192, 12, 16, 16]     [-1, 192, 12, 16, 16]     384                       [192]                     192
|    |    |    |    |    └─ReLU6: 6-30             [-1, 192, 12, 16, 16]     [-1, 192, 12, 16, 16]     --                        --                        --
|    |    |    |    └─ConvBNReLU: 5-21             [-1, 192, 12, 16, 16]     [-1, 192, 12, 16, 16]     --                        --                        --
|    |    |    |    |    └─Conv3d: 6-31            [-1, 192, 12, 16, 16]     [-1, 192, 12, 16, 16]     5,184                     [1, 192, 3, 3, 3]         15,925,248
|    |    |    |    |    └─BatchNorm2d: 6-32       [-1, 192, 12, 16, 16]     [-1, 192, 12, 16, 16]     384                       [192]                     192
|    |    |    |    |    └─ReLU6: 6-33             [-1, 192, 12, 16, 16]     [-1, 192, 12, 16, 16]     --                        --                        --
|    |    |    |    └─Conv3d: 5-22                 [-1, 192, 12, 16, 16]     [-1, 32, 12, 16, 16]      6,144                     [192, 32, 1, 1, 1]        18,874,368
|    |    |    |    └─BatchNorm2d: 5-23            [-1, 32, 12, 16, 16]      [-1, 32, 12, 16, 16]      64                        [32]                      32
|    |    └─InvertedResidual: 3-8                  [-1, 32, 12, 16, 16]      [-1, 64, 6, 8, 8]         --                        --                        --
|    |    |    └─Sequential: 4-10                  [-1, 32, 12, 16, 16]      [-1, 64, 6, 8, 8]         --                        --                        --
|    |    |    |    └─ConvBNReLU: 5-24             [-1, 32, 12, 16, 16]      [-1, 192, 12, 16, 16]     --                        --                        --
|    |    |    |    |    └─Conv3d: 6-34            [-1, 32, 12, 16, 16]      [-1, 192, 12, 16, 16]     6,144                     [32, 192, 1, 1, 1]        18,874,368
|    |    |    |    |    └─BatchNorm2d: 6-35       [-1, 192, 12, 16, 16]     [-1, 192, 12, 16, 16]     384                       [192]                     192
|    |    |    |    |    └─ReLU6: 6-36             [-1, 192, 12, 16, 16]     [-1, 192, 12, 16, 16]     --                        --                        --
|    |    |    |    └─ConvBNReLU: 5-25             [-1, 192, 12, 16, 16]     [-1, 192, 6, 8, 8]        --                        --                        --
|    |    |    |    |    └─Conv3d: 6-37            [-1, 192, 12, 16, 16]     [-1, 192, 6, 8, 8]        5,184                     [1, 192, 3, 3, 3]         1,990,656
|    |    |    |    |    └─BatchNorm2d: 6-38       [-1, 192, 6, 8, 8]        [-1, 192, 6, 8, 8]        384                       [192]                     192
|    |    |    |    |    └─ReLU6: 6-39             [-1, 192, 6, 8, 8]        [-1, 192, 6, 8, 8]        --                        --                        --
|    |    |    |    └─Conv3d: 5-26                 [-1, 192, 6, 8, 8]        [-1, 64, 6, 8, 8]         12,288                    [192, 64, 1, 1, 1]        4,718,592
|    |    |    |    └─BatchNorm2d: 5-27            [-1, 64, 6, 8, 8]         [-1, 64, 6, 8, 8]         128                       [64]                      64
|    |    └─InvertedResidual: 3-9                  [-1, 64, 6, 8, 8]         [-1, 64, 6, 8, 8]         --                        --                        --
|    |    |    └─Sequential: 4-11                  [-1, 64, 6, 8, 8]         [-1, 64, 6, 8, 8]         --                        --                        --
|    |    |    |    └─ConvBNReLU: 5-28             [-1, 64, 6, 8, 8]         [-1, 384, 6, 8, 8]        --                        --                        --
|    |    |    |    |    └─Conv3d: 6-40            [-1, 64, 6, 8, 8]         [-1, 384, 6, 8, 8]        24,576                    [64, 384, 1, 1, 1]        9,437,184
|    |    |    |    |    └─BatchNorm2d: 6-41       [-1, 384, 6, 8, 8]        [-1, 384, 6, 8, 8]        768                       [384]                     384
|    |    |    |    |    └─ReLU6: 6-42             [-1, 384, 6, 8, 8]        [-1, 384, 6, 8, 8]        --                        --                        --
|    |    |    |    └─ConvBNReLU: 5-29             [-1, 384, 6, 8, 8]        [-1, 384, 6, 8, 8]        --                        --                        --
|    |    |    |    |    └─Conv3d: 6-43            [-1, 384, 6, 8, 8]        [-1, 384, 6, 8, 8]        10,368                    [1, 384, 3, 3, 3]         3,981,312
|    |    |    |    |    └─BatchNorm2d: 6-44       [-1, 384, 6, 8, 8]        [-1, 384, 6, 8, 8]        768                       [384]                     384
|    |    |    |    |    └─ReLU6: 6-45             [-1, 384, 6, 8, 8]        [-1, 384, 6, 8, 8]        --                        --                        --
|    |    |    |    └─Conv3d: 5-30                 [-1, 384, 6, 8, 8]        [-1, 64, 6, 8, 8]         24,576                    [384, 64, 1, 1, 1]        9,437,184
|    |    |    |    └─BatchNorm2d: 5-31            [-1, 64, 6, 8, 8]         [-1, 64, 6, 8, 8]         128                       [64]                      64
|    |    └─InvertedResidual: 3-10                 [-1, 64, 6, 8, 8]         [-1, 64, 6, 8, 8]         --                        --                        --
|    |    |    └─Sequential: 4-12                  [-1, 64, 6, 8, 8]         [-1, 64, 6, 8, 8]         --                        --                        --
|    |    |    |    └─ConvBNReLU: 5-32             [-1, 64, 6, 8, 8]         [-1, 384, 6, 8, 8]        --                        --                        --
|    |    |    |    |    └─Conv3d: 6-46            [-1, 64, 6, 8, 8]         [-1, 384, 6, 8, 8]        24,576                    [64, 384, 1, 1, 1]        9,437,184
|    |    |    |    |    └─BatchNorm2d: 6-47       [-1, 384, 6, 8, 8]        [-1, 384, 6, 8, 8]        768                       [384]                     384
|    |    |    |    |    └─ReLU6: 6-48             [-1, 384, 6, 8, 8]        [-1, 384, 6, 8, 8]        --                        --                        --
|    |    |    |    └─ConvBNReLU: 5-33             [-1, 384, 6, 8, 8]        [-1, 384, 6, 8, 8]        --                        --                        --
|    |    |    |    |    └─Conv3d: 6-49            [-1, 384, 6, 8, 8]        [-1, 384, 6, 8, 8]        10,368                    [1, 384, 3, 3, 3]         3,981,312
|    |    |    |    |    └─BatchNorm2d: 6-50       [-1, 384, 6, 8, 8]        [-1, 384, 6, 8, 8]        768                       [384]                     384
|    |    |    |    |    └─ReLU6: 6-51             [-1, 384, 6, 8, 8]        [-1, 384, 6, 8, 8]        --                        --                        --
|    |    |    |    └─Conv3d: 5-34                 [-1, 384, 6, 8, 8]        [-1, 64, 6, 8, 8]         24,576                    [384, 64, 1, 1, 1]        9,437,184
|    |    |    |    └─BatchNorm2d: 5-35            [-1, 64, 6, 8, 8]         [-1, 64, 6, 8, 8]         128                       [64]                      64
|    |    └─InvertedResidual: 3-11                 [-1, 64, 6, 8, 8]         [-1, 64, 6, 8, 8]         --                        --                        --
|    |    |    └─Sequential: 4-13                  [-1, 64, 6, 8, 8]         [-1, 64, 6, 8, 8]         --                        --                        --
|    |    |    |    └─ConvBNReLU: 5-36             [-1, 64, 6, 8, 8]         [-1, 384, 6, 8, 8]        --                        --                        --
|    |    |    |    |    └─Conv3d: 6-52            [-1, 64, 6, 8, 8]         [-1, 384, 6, 8, 8]        24,576                    [64, 384, 1, 1, 1]        9,437,184
|    |    |    |    |    └─BatchNorm2d: 6-53       [-1, 384, 6, 8, 8]        [-1, 384, 6, 8, 8]        768                       [384]                     384
|    |    |    |    |    └─ReLU6: 6-54             [-1, 384, 6, 8, 8]        [-1, 384, 6, 8, 8]        --                        --                        --
|    |    |    |    └─ConvBNReLU: 5-37             [-1, 384, 6, 8, 8]        [-1, 384, 6, 8, 8]        --                        --                        --
|    |    |    |    |    └─Conv3d: 6-55            [-1, 384, 6, 8, 8]        [-1, 384, 6, 8, 8]        10,368                    [1, 384, 3, 3, 3]         3,981,312
|    |    |    |    |    └─BatchNorm2d: 6-56       [-1, 384, 6, 8, 8]        [-1, 384, 6, 8, 8]        768                       [384]                     384
|    |    |    |    |    └─ReLU6: 6-57             [-1, 384, 6, 8, 8]        [-1, 384, 6, 8, 8]        --                        --                        --
|    |    |    |    └─Conv3d: 5-38                 [-1, 384, 6, 8, 8]        [-1, 64, 6, 8, 8]         24,576                    [384, 64, 1, 1, 1]        9,437,184
|    |    |    |    └─BatchNorm2d: 5-39            [-1, 64, 6, 8, 8]         [-1, 64, 6, 8, 8]         128                       [64]                      64
|    |    └─InvertedResidual: 3-12                 [-1, 64, 6, 8, 8]         [-1, 96, 6, 8, 8]         --                        --                        --
|    |    |    └─Sequential: 4-14                  [-1, 64, 6, 8, 8]         [-1, 96, 6, 8, 8]         --                        --                        --
|    |    |    |    └─ConvBNReLU: 5-40             [-1, 64, 6, 8, 8]         [-1, 384, 6, 8, 8]        --                        --                        --
|    |    |    |    |    └─Conv3d: 6-58            [-1, 64, 6, 8, 8]         [-1, 384, 6, 8, 8]        24,576                    [64, 384, 1, 1, 1]        9,437,184
|    |    |    |    |    └─BatchNorm2d: 6-59       [-1, 384, 6, 8, 8]        [-1, 384, 6, 8, 8]        768                       [384]                     384
|    |    |    |    |    └─ReLU6: 6-60             [-1, 384, 6, 8, 8]        [-1, 384, 6, 8, 8]        --                        --                        --
|    |    |    |    └─ConvBNReLU: 5-41             [-1, 384, 6, 8, 8]        [-1, 384, 6, 8, 8]        --                        --                        --
|    |    |    |    |    └─Conv3d: 6-61            [-1, 384, 6, 8, 8]        [-1, 384, 6, 8, 8]        10,368                    [1, 384, 3, 3, 3]         3,981,312
|    |    |    |    |    └─BatchNorm2d: 6-62       [-1, 384, 6, 8, 8]        [-1, 384, 6, 8, 8]        768                       [384]                     384
|    |    |    |    |    └─ReLU6: 6-63             [-1, 384, 6, 8, 8]        [-1, 384, 6, 8, 8]        --                        --                        --
|    |    |    |    └─Conv3d: 5-42                 [-1, 384, 6, 8, 8]        [-1, 96, 6, 8, 8]         36,864                    [384, 96, 1, 1, 1]        14,155,776
|    |    |    |    └─BatchNorm2d: 5-43            [-1, 96, 6, 8, 8]         [-1, 96, 6, 8, 8]         192                       [96]                      96
|    |    └─InvertedResidual: 3-13                 [-1, 96, 6, 8, 8]         [-1, 96, 6, 8, 8]         --                        --                        --
|    |    |    └─Sequential: 4-15                  [-1, 96, 6, 8, 8]         [-1, 96, 6, 8, 8]         --                        --                        --
|    |    |    |    └─ConvBNReLU: 5-44             [-1, 96, 6, 8, 8]         [-1, 576, 6, 8, 8]        --                        --                        --
|    |    |    |    |    └─Conv3d: 6-64            [-1, 96, 6, 8, 8]         [-1, 576, 6, 8, 8]        55,296                    [96, 576, 1, 1, 1]        21,233,664
|    |    |    |    |    └─BatchNorm2d: 6-65       [-1, 576, 6, 8, 8]        [-1, 576, 6, 8, 8]        1,152                     [576]                     576
|    |    |    |    |    └─ReLU6: 6-66             [-1, 576, 6, 8, 8]        [-1, 576, 6, 8, 8]        --                        --                        --
|    |    |    |    └─ConvBNReLU: 5-45             [-1, 576, 6, 8, 8]        [-1, 576, 6, 8, 8]        --                        --                        --
|    |    |    |    |    └─Conv3d: 6-67            [-1, 576, 6, 8, 8]        [-1, 576, 6, 8, 8]        15,552                    [1, 576, 3, 3, 3]         5,971,968
|    |    |    |    |    └─BatchNorm2d: 6-68       [-1, 576, 6, 8, 8]        [-1, 576, 6, 8, 8]        1,152                     [576]                     576
|    |    |    |    |    └─ReLU6: 6-69             [-1, 576, 6, 8, 8]        [-1, 576, 6, 8, 8]        --                        --                        --
|    |    |    |    └─Conv3d: 5-46                 [-1, 576, 6, 8, 8]        [-1, 96, 6, 8, 8]         55,296                    [576, 96, 1, 1, 1]        21,233,664
|    |    |    |    └─BatchNorm2d: 5-47            [-1, 96, 6, 8, 8]         [-1, 96, 6, 8, 8]         192                       [96]                      96
|    |    └─InvertedResidual: 3-14                 [-1, 96, 6, 8, 8]         [-1, 96, 6, 8, 8]         --                        --                        --
|    |    |    └─Sequential: 4-16                  [-1, 96, 6, 8, 8]         [-1, 96, 6, 8, 8]         --                        --                        --
|    |    |    |    └─ConvBNReLU: 5-48             [-1, 96, 6, 8, 8]         [-1, 576, 6, 8, 8]        --                        --                        --
|    |    |    |    |    └─Conv3d: 6-70            [-1, 96, 6, 8, 8]         [-1, 576, 6, 8, 8]        55,296                    [96, 576, 1, 1, 1]        21,233,664
|    |    |    |    |    └─BatchNorm2d: 6-71       [-1, 576, 6, 8, 8]        [-1, 576, 6, 8, 8]        1,152                     [576]                     576
|    |    |    |    |    └─ReLU6: 6-72             [-1, 576, 6, 8, 8]        [-1, 576, 6, 8, 8]        --                        --                        --
|    |    |    |    └─ConvBNReLU: 5-49             [-1, 576, 6, 8, 8]        [-1, 576, 6, 8, 8]        --                        --                        --
|    |    |    |    |    └─Conv3d: 6-73            [-1, 576, 6, 8, 8]        [-1, 576, 6, 8, 8]        15,552                    [1, 576, 3, 3, 3]         5,971,968
|    |    |    |    |    └─BatchNorm2d: 6-74       [-1, 576, 6, 8, 8]        [-1, 576, 6, 8, 8]        1,152                     [576]                     576
|    |    |    |    |    └─ReLU6: 6-75             [-1, 576, 6, 8, 8]        [-1, 576, 6, 8, 8]        --                        --                        --
|    |    |    |    └─Conv3d: 5-50                 [-1, 576, 6, 8, 8]        [-1, 96, 6, 8, 8]         55,296                    [576, 96, 1, 1, 1]        21,233,664
|    |    |    |    └─BatchNorm2d: 5-51            [-1, 96, 6, 8, 8]         [-1, 96, 6, 8, 8]         192                       [96]                      96
|    |    └─InvertedResidual: 3-15                 [-1, 96, 6, 8, 8]         [-1, 160, 3, 4, 4]        --                        --                        --
|    |    |    └─Sequential: 4-17                  [-1, 96, 6, 8, 8]         [-1, 160, 3, 4, 4]        --                        --                        --
|    |    |    |    └─ConvBNReLU: 5-52             [-1, 96, 6, 8, 8]         [-1, 576, 6, 8, 8]        --                        --                        --
|    |    |    |    |    └─Conv3d: 6-76            [-1, 96, 6, 8, 8]         [-1, 576, 6, 8, 8]        55,296                    [96, 576, 1, 1, 1]        21,233,664
|    |    |    |    |    └─BatchNorm2d: 6-77       [-1, 576, 6, 8, 8]        [-1, 576, 6, 8, 8]        1,152                     [576]                     576
|    |    |    |    |    └─ReLU6: 6-78             [-1, 576, 6, 8, 8]        [-1, 576, 6, 8, 8]        --                        --                        --
|    |    |    |    └─ConvBNReLU: 5-53             [-1, 576, 6, 8, 8]        [-1, 576, 3, 4, 4]        --                        --                        --
|    |    |    |    |    └─Conv3d: 6-79            [-1, 576, 6, 8, 8]        [-1, 576, 3, 4, 4]        15,552                    [1, 576, 3, 3, 3]         746,496
|    |    |    |    |    └─BatchNorm2d: 6-80       [-1, 576, 3, 4, 4]        [-1, 576, 3, 4, 4]        1,152                     [576]                     576
|    |    |    |    |    └─ReLU6: 6-81             [-1, 576, 3, 4, 4]        [-1, 576, 3, 4, 4]        --                        --                        --
|    |    |    |    └─Conv3d: 5-54                 [-1, 576, 3, 4, 4]        [-1, 160, 3, 4, 4]        92,160                    [576, 160, 1, 1, 1]       4,423,680
|    |    |    |    └─BatchNorm2d: 5-55            [-1, 160, 3, 4, 4]        [-1, 160, 3, 4, 4]        320                       [160]                     160
|    |    └─InvertedResidual: 3-16                 [-1, 160, 3, 4, 4]        [-1, 160, 3, 4, 4]        --                        --                        --
|    |    |    └─Sequential: 4-18                  [-1, 160, 3, 4, 4]        [-1, 160, 3, 4, 4]        --                        --                        --
|    |    |    |    └─ConvBNReLU: 5-56             [-1, 160, 3, 4, 4]        [-1, 960, 3, 4, 4]        --                        --                        --
|    |    |    |    |    └─Conv3d: 6-82            [-1, 160, 3, 4, 4]        [-1, 960, 3, 4, 4]        153,600                   [160, 960, 1, 1, 1]       7,372,800
|    |    |    |    |    └─BatchNorm2d: 6-83       [-1, 960, 3, 4, 4]        [-1, 960, 3, 4, 4]        1,920                     [960]                     960
|    |    |    |    |    └─ReLU6: 6-84             [-1, 960, 3, 4, 4]        [-1, 960, 3, 4, 4]        --                        --                        --
|    |    |    |    └─ConvBNReLU: 5-57             [-1, 960, 3, 4, 4]        [-1, 960, 3, 4, 4]        --                        --                        --
|    |    |    |    |    └─Conv3d: 6-85            [-1, 960, 3, 4, 4]        [-1, 960, 3, 4, 4]        25,920                    [1, 960, 3, 3, 3]         1,244,160
|    |    |    |    |    └─BatchNorm2d: 6-86       [-1, 960, 3, 4, 4]        [-1, 960, 3, 4, 4]        1,920                     [960]                     960
|    |    |    |    |    └─ReLU6: 6-87             [-1, 960, 3, 4, 4]        [-1, 960, 3, 4, 4]        --                        --                        --
|    |    |    |    └─Conv3d: 5-58                 [-1, 960, 3, 4, 4]        [-1, 160, 3, 4, 4]        153,600                   [960, 160, 1, 1, 1]       7,372,800
|    |    |    |    └─BatchNorm2d: 5-59            [-1, 160, 3, 4, 4]        [-1, 160, 3, 4, 4]        320                       [160]                     160
|    |    └─InvertedResidual: 3-17                 [-1, 160, 3, 4, 4]        [-1, 160, 3, 4, 4]        --                        --                        --
|    |    |    └─Sequential: 4-19                  [-1, 160, 3, 4, 4]        [-1, 160, 3, 4, 4]        --                        --                        --
|    |    |    |    └─ConvBNReLU: 5-60             [-1, 160, 3, 4, 4]        [-1, 960, 3, 4, 4]        --                        --                        --
|    |    |    |    |    └─Conv3d: 6-88            [-1, 160, 3, 4, 4]        [-1, 960, 3, 4, 4]        153,600                   [160, 960, 1, 1, 1]       7,372,800
|    |    |    |    |    └─BatchNorm2d: 6-89       [-1, 960, 3, 4, 4]        [-1, 960, 3, 4, 4]        1,920                     [960]                     960
|    |    |    |    |    └─ReLU6: 6-90             [-1, 960, 3, 4, 4]        [-1, 960, 3, 4, 4]        --                        --                        --
|    |    |    |    └─ConvBNReLU: 5-61             [-1, 960, 3, 4, 4]        [-1, 960, 3, 4, 4]        --                        --                        --
|    |    |    |    |    └─Conv3d: 6-91            [-1, 960, 3, 4, 4]        [-1, 960, 3, 4, 4]        25,920                    [1, 960, 3, 3, 3]         1,244,160
|    |    |    |    |    └─BatchNorm2d: 6-92       [-1, 960, 3, 4, 4]        [-1, 960, 3, 4, 4]        1,920                     [960]                     960
|    |    |    |    |    └─ReLU6: 6-93             [-1, 960, 3, 4, 4]        [-1, 960, 3, 4, 4]        --                        --                        --
|    |    |    |    └─Conv3d: 5-62                 [-1, 960, 3, 4, 4]        [-1, 160, 3, 4, 4]        153,600                   [960, 160, 1, 1, 1]       7,372,800
|    |    |    |    └─BatchNorm2d: 5-63            [-1, 160, 3, 4, 4]        [-1, 160, 3, 4, 4]        320                       [160]                     160
├─Decoder_3D: 1-2                                  [-1, 24, 24, 32, 32]      [-1, 2, 48, 128, 128]     --                        --                        --
|    └─Sequential: 2-1                             [-1, 24, 24, 32, 32]      [-1, 3, 48, 128, 128]     --                        --                        --
|    |    └─Deconv: 3-18                           [-1, 24, 24, 32, 32]      [-1, 8, 24, 64, 64]       --                        --                        --
|    |    |    └─BasicConv3d: 4-20                 [-1, 24, 24, 32, 32]      [-1, 8, 24, 32, 32]       --                        --                        --
|    |    |    |    └─ConvBNReLU: 5-64             [-1, 24, 24, 32, 32]      [-1, 8, 24, 32, 32]       --                        --                        --
|    |    |    |    |    └─Conv3d: 6-94            [-1, 24, 24, 32, 32]      [-1, 8, 24, 32, 32]       5,184                     [24, 8, 3, 3, 3]          127,401,984
|    |    |    |    |    └─BatchNorm3d: 6-95       [-1, 8, 24, 32, 32]       [-1, 8, 24, 32, 32]       16                        [8]                       8
|    |    |    |    |    └─ReLU6: 6-96             [-1, 8, 24, 32, 32]       [-1, 8, 24, 32, 32]       --                        --                        --
|    |    |    └─SepConv3d: 4-21                   [-1, 8, 24, 32, 32]       [-1, 8, 24, 32, 32]       --                        --                        --
|    |    |    |    └─ConvBNReLU: 5-65             [-1, 8, 24, 32, 32]       [-1, 8, 24, 32, 32]       --                        --                        --
|    |    |    |    |    └─Conv3d: 6-97            [-1, 8, 24, 32, 32]       [-1, 8, 24, 32, 32]       216                       [1, 8, 3, 3, 3]           5,308,416
|    |    |    |    |    └─BatchNorm3d: 6-98       [-1, 8, 24, 32, 32]       [-1, 8, 24, 32, 32]       16                        [8]                       8
|    |    |    |    |    └─ReLU6: 6-99             [-1, 8, 24, 32, 32]       [-1, 8, 24, 32, 32]       --                        --                        --
|    |    |    |    └─ConvBNReLU: 5-66             [-1, 8, 24, 32, 32]       [-1, 8, 24, 32, 32]       --                        --                        --
|    |    |    |    |    └─Conv3d: 6-100           [-1, 8, 24, 32, 32]       [-1, 8, 24, 32, 32]       64                        [8, 8, 1, 1, 1]           1,572,864
|    |    |    |    |    └─BatchNorm3d: 6-101      [-1, 8, 24, 32, 32]       [-1, 8, 24, 32, 32]       16                        [8]                       8
|    |    |    |    |    └─ReLU6: 6-102            [-1, 8, 24, 32, 32]       [-1, 8, 24, 32, 32]       --                        --                        --
|    |    |    └─Upsample: 4-22                    [-1, 8, 24, 32, 32]       [-1, 8, 24, 64, 64]       --                        --                        --
|    |    └─Deconv: 3-19                           [-1, 8, 24, 64, 64]       [-1, 3, 48, 128, 128]     --                        --                        --
|    |    |    └─BasicConv3d: 4-23                 [-1, 8, 24, 64, 64]       [-1, 3, 24, 64, 64]       --                        --                        --
|    |    |    |    └─ConvBNReLU: 5-67             [-1, 8, 24, 64, 64]       [-1, 3, 24, 64, 64]       --                        --                        --
|    |    |    |    |    └─Conv3d: 6-103           [-1, 8, 24, 64, 64]       [-1, 3, 24, 64, 64]       648                       [8, 3, 3, 3, 3]           63,700,992
|    |    |    |    |    └─BatchNorm3d: 6-104      [-1, 3, 24, 64, 64]       [-1, 3, 24, 64, 64]       6                         [3]                       3
|    |    |    |    |    └─ReLU6: 6-105            [-1, 3, 24, 64, 64]       [-1, 3, 24, 64, 64]       --                        --                        --
|    |    |    └─SepConv3d: 4-24                   [-1, 3, 24, 64, 64]       [-1, 3, 24, 64, 64]       --                        --                        --
|    |    |    |    └─ConvBNReLU: 5-68             [-1, 3, 24, 64, 64]       [-1, 3, 24, 64, 64]       --                        --                        --
|    |    |    |    |    └─Conv3d: 6-106           [-1, 3, 24, 64, 64]       [-1, 3, 24, 64, 64]       81                        [1, 3, 3, 3, 3]           7,962,624
|    |    |    |    |    └─BatchNorm3d: 6-107      [-1, 3, 24, 64, 64]       [-1, 3, 24, 64, 64]       6                         [3]                       3
|    |    |    |    |    └─ReLU6: 6-108            [-1, 3, 24, 64, 64]       [-1, 3, 24, 64, 64]       --                        --                        --
|    |    |    |    └─ConvBNReLU: 5-69             [-1, 3, 24, 64, 64]       [-1, 3, 24, 64, 64]       --                        --                        --
|    |    |    |    |    └─Conv3d: 6-109           [-1, 3, 24, 64, 64]       [-1, 3, 24, 64, 64]       9                         [3, 3, 1, 1, 1]           884,736
|    |    |    |    |    └─BatchNorm3d: 6-110      [-1, 3, 24, 64, 64]       [-1, 3, 24, 64, 64]       6                         [3]                       3
|    |    |    |    |    └─ReLU6: 6-111            [-1, 3, 24, 64, 64]       [-1, 3, 24, 64, 64]       --                        --                        --
|    |    |    └─Upsample: 4-25                    [-1, 3, 24, 64, 64]       [-1, 3, 48, 128, 128]     --                        --                        --
|    └─Conv3d: 2-2                                 [-1, 3, 48, 128, 128]     [-1, 2, 48, 128, 128]     8                         [3, 2, 1, 1, 1]           4,718,592
├─Decoder_3D: 1-3                                  [-1, 32, 12, 16, 16]      [-1, 2, 48, 128, 128]     --                        --                        --
|    └─Sequential: 2-3                             [-1, 32, 12, 16, 16]      [-1, 3, 48, 128, 128]     --                        --                        --
|    |    └─Deconv: 3-20                           [-1, 32, 12, 16, 16]      [-1, 16, 12, 32, 32]      --                        --                        --
|    |    |    └─BasicConv3d: 4-26                 [-1, 32, 12, 16, 16]      [-1, 16, 12, 16, 16]      --                        --                        --
|    |    |    |    └─ConvBNReLU: 5-70             [-1, 32, 12, 16, 16]      [-1, 16, 12, 16, 16]      --                        --                        --
|    |    |    |    |    └─Conv3d: 6-112           [-1, 32, 12, 16, 16]      [-1, 16, 12, 16, 16]      13,824                    [32, 16, 3, 3, 3]         42,467,328
|    |    |    |    |    └─BatchNorm3d: 6-113      [-1, 16, 12, 16, 16]      [-1, 16, 12, 16, 16]      32                        [16]                      16
|    |    |    |    |    └─ReLU6: 6-114            [-1, 16, 12, 16, 16]      [-1, 16, 12, 16, 16]      --                        --                        --
|    |    |    └─SepConv3d: 4-27                   [-1, 16, 12, 16, 16]      [-1, 16, 12, 16, 16]      --                        --                        --
|    |    |    |    └─ConvBNReLU: 5-71             [-1, 16, 12, 16, 16]      [-1, 16, 12, 16, 16]      --                        --                        --
|    |    |    |    |    └─Conv3d: 6-115           [-1, 16, 12, 16, 16]      [-1, 16, 12, 16, 16]      432                       [1, 16, 3, 3, 3]          1,327,104
|    |    |    |    |    └─BatchNorm3d: 6-116      [-1, 16, 12, 16, 16]      [-1, 16, 12, 16, 16]      32                        [16]                      16
|    |    |    |    |    └─ReLU6: 6-117            [-1, 16, 12, 16, 16]      [-1, 16, 12, 16, 16]      --                        --                        --
|    |    |    |    └─ConvBNReLU: 5-72             [-1, 16, 12, 16, 16]      [-1, 16, 12, 16, 16]      --                        --                        --
|    |    |    |    |    └─Conv3d: 6-118           [-1, 16, 12, 16, 16]      [-1, 16, 12, 16, 16]      256                       [16, 16, 1, 1, 1]         786,432
|    |    |    |    |    └─BatchNorm3d: 6-119      [-1, 16, 12, 16, 16]      [-1, 16, 12, 16, 16]      32                        [16]                      16
|    |    |    |    |    └─ReLU6: 6-120            [-1, 16, 12, 16, 16]      [-1, 16, 12, 16, 16]      --                        --                        --
|    |    |    └─Upsample: 4-28                    [-1, 16, 12, 16, 16]      [-1, 16, 12, 32, 32]      --                        --                        --
|    |    └─Deconv: 3-21                           [-1, 16, 12, 32, 32]      [-1, 8, 24, 64, 64]       --                        --                        --
|    |    |    └─BasicConv3d: 4-29                 [-1, 16, 12, 32, 32]      [-1, 8, 12, 32, 32]       --                        --                        --
|    |    |    |    └─ConvBNReLU: 5-73             [-1, 16, 12, 32, 32]      [-1, 8, 12, 32, 32]       --                        --                        --
|    |    |    |    |    └─Conv3d: 6-121           [-1, 16, 12, 32, 32]      [-1, 8, 12, 32, 32]       3,456                     [16, 8, 3, 3, 3]          42,467,328
|    |    |    |    |    └─BatchNorm3d: 6-122      [-1, 8, 12, 32, 32]       [-1, 8, 12, 32, 32]       16                        [8]                       8
|    |    |    |    |    └─ReLU6: 6-123            [-1, 8, 12, 32, 32]       [-1, 8, 12, 32, 32]       --                        --                        --
|    |    |    └─SepConv3d: 4-30                   [-1, 8, 12, 32, 32]       [-1, 8, 12, 32, 32]       --                        --                        --
|    |    |    |    └─ConvBNReLU: 5-74             [-1, 8, 12, 32, 32]       [-1, 8, 12, 32, 32]       --                        --                        --
|    |    |    |    |    └─Conv3d: 6-124           [-1, 8, 12, 32, 32]       [-1, 8, 12, 32, 32]       216                       [1, 8, 3, 3, 3]           2,654,208
|    |    |    |    |    └─BatchNorm3d: 6-125      [-1, 8, 12, 32, 32]       [-1, 8, 12, 32, 32]       16                        [8]                       8
|    |    |    |    |    └─ReLU6: 6-126            [-1, 8, 12, 32, 32]       [-1, 8, 12, 32, 32]       --                        --                        --
|    |    |    |    └─ConvBNReLU: 5-75             [-1, 8, 12, 32, 32]       [-1, 8, 12, 32, 32]       --                        --                        --
|    |    |    |    |    └─Conv3d: 6-127           [-1, 8, 12, 32, 32]       [-1, 8, 12, 32, 32]       64                        [8, 8, 1, 1, 1]           786,432
|    |    |    |    |    └─BatchNorm3d: 6-128      [-1, 8, 12, 32, 32]       [-1, 8, 12, 32, 32]       16                        [8]                       8
|    |    |    |    |    └─ReLU6: 6-129            [-1, 8, 12, 32, 32]       [-1, 8, 12, 32, 32]       --                        --                        --
|    |    |    └─Upsample: 4-31                    [-1, 8, 12, 32, 32]       [-1, 8, 24, 64, 64]       --                        --                        --
|    |    └─Deconv: 3-22                           [-1, 8, 24, 64, 64]       [-1, 3, 48, 128, 128]     --                        --                        --
|    |    |    └─BasicConv3d: 4-32                 [-1, 8, 24, 64, 64]       [-1, 3, 24, 64, 64]       --                        --                        --
|    |    |    |    └─ConvBNReLU: 5-76             [-1, 8, 24, 64, 64]       [-1, 3, 24, 64, 64]       --                        --                        --
|    |    |    |    |    └─Conv3d: 6-130           [-1, 8, 24, 64, 64]       [-1, 3, 24, 64, 64]       648                       [8, 3, 3, 3, 3]           63,700,992
|    |    |    |    |    └─BatchNorm3d: 6-131      [-1, 3, 24, 64, 64]       [-1, 3, 24, 64, 64]       6                         [3]                       3
|    |    |    |    |    └─ReLU6: 6-132            [-1, 3, 24, 64, 64]       [-1, 3, 24, 64, 64]       --                        --                        --
|    |    |    └─SepConv3d: 4-33                   [-1, 3, 24, 64, 64]       [-1, 3, 24, 64, 64]       --                        --                        --
|    |    |    |    └─ConvBNReLU: 5-77             [-1, 3, 24, 64, 64]       [-1, 3, 24, 64, 64]       --                        --                        --
|    |    |    |    |    └─Conv3d: 6-133           [-1, 3, 24, 64, 64]       [-1, 3, 24, 64, 64]       81                        [1, 3, 3, 3, 3]           7,962,624
|    |    |    |    |    └─BatchNorm3d: 6-134      [-1, 3, 24, 64, 64]       [-1, 3, 24, 64, 64]       6                         [3]                       3
|    |    |    |    |    └─ReLU6: 6-135            [-1, 3, 24, 64, 64]       [-1, 3, 24, 64, 64]       --                        --                        --
|    |    |    |    └─ConvBNReLU: 5-78             [-1, 3, 24, 64, 64]       [-1, 3, 24, 64, 64]       --                        --                        --
|    |    |    |    |    └─Conv3d: 6-136           [-1, 3, 24, 64, 64]       [-1, 3, 24, 64, 64]       9                         [3, 3, 1, 1, 1]           884,736
|    |    |    |    |    └─BatchNorm3d: 6-137      [-1, 3, 24, 64, 64]       [-1, 3, 24, 64, 64]       6                         [3]                       3
|    |    |    |    |    └─ReLU6: 6-138            [-1, 3, 24, 64, 64]       [-1, 3, 24, 64, 64]       --                        --                        --
|    |    |    └─Upsample: 4-34                    [-1, 3, 24, 64, 64]       [-1, 3, 48, 128, 128]     --                        --                        --
|    └─Conv3d: 2-4                                 [-1, 3, 48, 128, 128]     [-1, 2, 48, 128, 128]     8                         [3, 2, 1, 1, 1]           4,718,592
├─Decoder_3D: 1-4                                  [-1, 64, 6, 8, 8]         [-1, 2, 48, 128, 128]     --                        --                        --
|    └─Sequential: 2-5                             [-1, 64, 6, 8, 8]         [-1, 3, 48, 128, 128]     --                        --                        --
|    |    └─Deconv: 3-23                           [-1, 64, 6, 8, 8]         [-1, 32, 6, 16, 16]       --                        --                        --
|    |    |    └─BasicConv3d: 4-35                 [-1, 64, 6, 8, 8]         [-1, 32, 6, 8, 8]         --                        --                        --
|    |    |    |    └─ConvBNReLU: 5-79             [-1, 64, 6, 8, 8]         [-1, 32, 6, 8, 8]         --                        --                        --
|    |    |    |    |    └─Conv3d: 6-139           [-1, 64, 6, 8, 8]         [-1, 32, 6, 8, 8]         55,296                    [64, 32, 3, 3, 3]         21,233,664
|    |    |    |    |    └─BatchNorm3d: 6-140      [-1, 32, 6, 8, 8]         [-1, 32, 6, 8, 8]         64                        [32]                      32
|    |    |    |    |    └─ReLU6: 6-141            [-1, 32, 6, 8, 8]         [-1, 32, 6, 8, 8]         --                        --                        --
|    |    |    └─SepConv3d: 4-36                   [-1, 32, 6, 8, 8]         [-1, 32, 6, 8, 8]         --                        --                        --
|    |    |    |    └─ConvBNReLU: 5-80             [-1, 32, 6, 8, 8]         [-1, 32, 6, 8, 8]         --                        --                        --
|    |    |    |    |    └─Conv3d: 6-142           [-1, 32, 6, 8, 8]         [-1, 32, 6, 8, 8]         864                       [1, 32, 3, 3, 3]          331,776
|    |    |    |    |    └─BatchNorm3d: 6-143      [-1, 32, 6, 8, 8]         [-1, 32, 6, 8, 8]         64                        [32]                      32
|    |    |    |    |    └─ReLU6: 6-144            [-1, 32, 6, 8, 8]         [-1, 32, 6, 8, 8]         --                        --                        --
|    |    |    |    └─ConvBNReLU: 5-81             [-1, 32, 6, 8, 8]         [-1, 32, 6, 8, 8]         --                        --                        --
|    |    |    |    |    └─Conv3d: 6-145           [-1, 32, 6, 8, 8]         [-1, 32, 6, 8, 8]         1,024                     [32, 32, 1, 1, 1]         393,216
|    |    |    |    |    └─BatchNorm3d: 6-146      [-1, 32, 6, 8, 8]         [-1, 32, 6, 8, 8]         64                        [32]                      32
|    |    |    |    |    └─ReLU6: 6-147            [-1, 32, 6, 8, 8]         [-1, 32, 6, 8, 8]         --                        --                        --
|    |    |    └─SepConv3d: 4-37                   [-1, 32, 6, 8, 8]         [-1, 32, 6, 8, 8]         --                        --                        --
|    |    |    |    └─ConvBNReLU: 5-82             [-1, 32, 6, 8, 8]         [-1, 32, 6, 8, 8]         --                        --                        --
|    |    |    |    |    └─Conv3d: 6-148           [-1, 32, 6, 8, 8]         [-1, 32, 6, 8, 8]         864                       [1, 32, 3, 3, 3]          331,776
|    |    |    |    |    └─BatchNorm3d: 6-149      [-1, 32, 6, 8, 8]         [-1, 32, 6, 8, 8]         64                        [32]                      32
|    |    |    |    |    └─ReLU6: 6-150            [-1, 32, 6, 8, 8]         [-1, 32, 6, 8, 8]         --                        --                        --
|    |    |    |    └─ConvBNReLU: 5-83             [-1, 32, 6, 8, 8]         [-1, 32, 6, 8, 8]         --                        --                        --
|    |    |    |    |    └─Conv3d: 6-151           [-1, 32, 6, 8, 8]         [-1, 32, 6, 8, 8]         1,024                     [32, 32, 1, 1, 1]         393,216
|    |    |    |    |    └─BatchNorm3d: 6-152      [-1, 32, 6, 8, 8]         [-1, 32, 6, 8, 8]         64                        [32]                      32
|    |    |    |    |    └─ReLU6: 6-153            [-1, 32, 6, 8, 8]         [-1, 32, 6, 8, 8]         --                        --                        --
|    |    |    └─Upsample: 4-38                    [-1, 32, 6, 8, 8]         [-1, 32, 6, 16, 16]       --                        --                        --
|    |    └─Deconv: 3-24                           [-1, 32, 6, 16, 16]       [-1, 16, 12, 32, 32]      --                        --                        --
|    |    |    └─BasicConv3d: 4-39                 [-1, 32, 6, 16, 16]       [-1, 16, 6, 16, 16]       --                        --                        --
|    |    |    |    └─ConvBNReLU: 5-84             [-1, 32, 6, 16, 16]       [-1, 16, 6, 16, 16]       --                        --                        --
|    |    |    |    |    └─Conv3d: 6-154           [-1, 32, 6, 16, 16]       [-1, 16, 6, 16, 16]       13,824                    [32, 16, 3, 3, 3]         21,233,664
|    |    |    |    |    └─BatchNorm3d: 6-155      [-1, 16, 6, 16, 16]       [-1, 16, 6, 16, 16]       32                        [16]                      16
|    |    |    |    |    └─ReLU6: 6-156            [-1, 16, 6, 16, 16]       [-1, 16, 6, 16, 16]       --                        --                        --
|    |    |    └─SepConv3d: 4-40                   [-1, 16, 6, 16, 16]       [-1, 16, 6, 16, 16]       --                        --                        --
|    |    |    |    └─ConvBNReLU: 5-85             [-1, 16, 6, 16, 16]       [-1, 16, 6, 16, 16]       --                        --                        --
|    |    |    |    |    └─Conv3d: 6-157           [-1, 16, 6, 16, 16]       [-1, 16, 6, 16, 16]       432                       [1, 16, 3, 3, 3]          663,552
|    |    |    |    |    └─BatchNorm3d: 6-158      [-1, 16, 6, 16, 16]       [-1, 16, 6, 16, 16]       32                        [16]                      16
|    |    |    |    |    └─ReLU6: 6-159            [-1, 16, 6, 16, 16]       [-1, 16, 6, 16, 16]       --                        --                        --
|    |    |    |    └─ConvBNReLU: 5-86             [-1, 16, 6, 16, 16]       [-1, 16, 6, 16, 16]       --                        --                        --
|    |    |    |    |    └─Conv3d: 6-160           [-1, 16, 6, 16, 16]       [-1, 16, 6, 16, 16]       256                       [16, 16, 1, 1, 1]         393,216
|    |    |    |    |    └─BatchNorm3d: 6-161      [-1, 16, 6, 16, 16]       [-1, 16, 6, 16, 16]       32                        [16]                      16
|    |    |    |    |    └─ReLU6: 6-162            [-1, 16, 6, 16, 16]       [-1, 16, 6, 16, 16]       --                        --                        --
|    |    |    └─Upsample: 4-41                    [-1, 16, 6, 16, 16]       [-1, 16, 12, 32, 32]      --                        --                        --
|    |    └─Deconv: 3-25                           [-1, 16, 12, 32, 32]      [-1, 8, 24, 64, 64]       --                        --                        --
|    |    |    └─BasicConv3d: 4-42                 [-1, 16, 12, 32, 32]      [-1, 8, 12, 32, 32]       --                        --                        --
|    |    |    |    └─ConvBNReLU: 5-87             [-1, 16, 12, 32, 32]      [-1, 8, 12, 32, 32]       --                        --                        --
|    |    |    |    |    └─Conv3d: 6-163           [-1, 16, 12, 32, 32]      [-1, 8, 12, 32, 32]       3,456                     [16, 8, 3, 3, 3]          42,467,328
|    |    |    |    |    └─BatchNorm3d: 6-164      [-1, 8, 12, 32, 32]       [-1, 8, 12, 32, 32]       16                        [8]                       8
|    |    |    |    |    └─ReLU6: 6-165            [-1, 8, 12, 32, 32]       [-1, 8, 12, 32, 32]       --                        --                        --
|    |    |    └─SepConv3d: 4-43                   [-1, 8, 12, 32, 32]       [-1, 8, 12, 32, 32]       --                        --                        --
|    |    |    |    └─ConvBNReLU: 5-88             [-1, 8, 12, 32, 32]       [-1, 8, 12, 32, 32]       --                        --                        --
|    |    |    |    |    └─Conv3d: 6-166           [-1, 8, 12, 32, 32]       [-1, 8, 12, 32, 32]       216                       [1, 8, 3, 3, 3]           2,654,208
|    |    |    |    |    └─BatchNorm3d: 6-167      [-1, 8, 12, 32, 32]       [-1, 8, 12, 32, 32]       16                        [8]                       8
|    |    |    |    |    └─ReLU6: 6-168            [-1, 8, 12, 32, 32]       [-1, 8, 12, 32, 32]       --                        --                        --
|    |    |    |    └─ConvBNReLU: 5-89             [-1, 8, 12, 32, 32]       [-1, 8, 12, 32, 32]       --                        --                        --
|    |    |    |    |    └─Conv3d: 6-169           [-1, 8, 12, 32, 32]       [-1, 8, 12, 32, 32]       64                        [8, 8, 1, 1, 1]           786,432
|    |    |    |    |    └─BatchNorm3d: 6-170      [-1, 8, 12, 32, 32]       [-1, 8, 12, 32, 32]       16                        [8]                       8
|    |    |    |    |    └─ReLU6: 6-171            [-1, 8, 12, 32, 32]       [-1, 8, 12, 32, 32]       --                        --                        --
|    |    |    └─Upsample: 4-44                    [-1, 8, 12, 32, 32]       [-1, 8, 24, 64, 64]       --                        --                        --
|    |    └─Deconv: 3-26                           [-1, 8, 24, 64, 64]       [-1, 3, 48, 128, 128]     --                        --                        --
|    |    |    └─BasicConv3d: 4-45                 [-1, 8, 24, 64, 64]       [-1, 3, 24, 64, 64]       --                        --                        --
|    |    |    |    └─ConvBNReLU: 5-90             [-1, 8, 24, 64, 64]       [-1, 3, 24, 64, 64]       --                        --                        --
|    |    |    |    |    └─Conv3d: 6-172           [-1, 8, 24, 64, 64]       [-1, 3, 24, 64, 64]       648                       [8, 3, 3, 3, 3]           63,700,992
|    |    |    |    |    └─BatchNorm3d: 6-173      [-1, 3, 24, 64, 64]       [-1, 3, 24, 64, 64]       6                         [3]                       3
|    |    |    |    |    └─ReLU6: 6-174            [-1, 3, 24, 64, 64]       [-1, 3, 24, 64, 64]       --                        --                        --
|    |    |    └─SepConv3d: 4-46                   [-1, 3, 24, 64, 64]       [-1, 3, 24, 64, 64]       --                        --                        --
|    |    |    |    └─ConvBNReLU: 5-91             [-1, 3, 24, 64, 64]       [-1, 3, 24, 64, 64]       --                        --                        --
|    |    |    |    |    └─Conv3d: 6-175           [-1, 3, 24, 64, 64]       [-1, 3, 24, 64, 64]       81                        [1, 3, 3, 3, 3]           7,962,624
|    |    |    |    |    └─BatchNorm3d: 6-176      [-1, 3, 24, 64, 64]       [-1, 3, 24, 64, 64]       6                         [3]                       3
|    |    |    |    |    └─ReLU6: 6-177            [-1, 3, 24, 64, 64]       [-1, 3, 24, 64, 64]       --                        --                        --
|    |    |    |    └─ConvBNReLU: 5-92             [-1, 3, 24, 64, 64]       [-1, 3, 24, 64, 64]       --                        --                        --
|    |    |    |    |    └─Conv3d: 6-178           [-1, 3, 24, 64, 64]       [-1, 3, 24, 64, 64]       9                         [3, 3, 1, 1, 1]           884,736
|    |    |    |    |    └─BatchNorm3d: 6-179      [-1, 3, 24, 64, 64]       [-1, 3, 24, 64, 64]       6                         [3]                       3
|    |    |    |    |    └─ReLU6: 6-180            [-1, 3, 24, 64, 64]       [-1, 3, 24, 64, 64]       --                        --                        --
|    |    |    └─Upsample: 4-47                    [-1, 3, 24, 64, 64]       [-1, 3, 48, 128, 128]     --                        --                        --
|    └─Conv3d: 2-6                                 [-1, 3, 48, 128, 128]     [-1, 2, 48, 128, 128]     8                         [3, 2, 1, 1, 1]           4,718,592
├─Decoder_3D: 1-5                                  [-1, 160, 3, 4, 4]        [-1, 2, 48, 128, 128]     --                        --                        --
|    └─Sequential: 2-7                             [-1, 160, 3, 4, 4]        [-1, 3, 48, 128, 128]     --                        --                        --
|    |    └─Deconv: 3-27                           [-1, 160, 3, 4, 4]        [-1, 128, 3, 8, 8]        --                        --                        --
|    |    |    └─BasicConv3d: 4-48                 [-1, 160, 3, 4, 4]        [-1, 128, 3, 4, 4]        --                        --                        --
|    |    |    |    └─ConvBNReLU: 5-93             [-1, 160, 3, 4, 4]        [-1, 128, 3, 4, 4]        --                        --                        --
|    |    |    |    |    └─Conv3d: 6-181           [-1, 160, 3, 4, 4]        [-1, 128, 3, 4, 4]        552,960                   [160, 128, 3, 3, 3]       26,542,080
|    |    |    |    |    └─BatchNorm3d: 6-182      [-1, 128, 3, 4, 4]        [-1, 128, 3, 4, 4]        256                       [128]                     128
|    |    |    |    |    └─ReLU6: 6-183            [-1, 128, 3, 4, 4]        [-1, 128, 3, 4, 4]        --                        --                        --
|    |    |    └─SepConv3d: 4-49                   [-1, 128, 3, 4, 4]        [-1, 128, 3, 4, 4]        --                        --                        --
|    |    |    |    └─ConvBNReLU: 5-94             [-1, 128, 3, 4, 4]        [-1, 128, 3, 4, 4]        --                        --                        --
|    |    |    |    |    └─Conv3d: 6-184           [-1, 128, 3, 4, 4]        [-1, 128, 3, 4, 4]        3,456                     [1, 128, 3, 3, 3]         165,888
|    |    |    |    |    └─BatchNorm3d: 6-185      [-1, 128, 3, 4, 4]        [-1, 128, 3, 4, 4]        256                       [128]                     128
|    |    |    |    |    └─ReLU6: 6-186            [-1, 128, 3, 4, 4]        [-1, 128, 3, 4, 4]        --                        --                        --
|    |    |    |    └─ConvBNReLU: 5-95             [-1, 128, 3, 4, 4]        [-1, 128, 3, 4, 4]        --                        --                        --
|    |    |    |    |    └─Conv3d: 6-187           [-1, 128, 3, 4, 4]        [-1, 128, 3, 4, 4]        16,384                    [128, 128, 1, 1, 1]       786,432
|    |    |    |    |    └─BatchNorm3d: 6-188      [-1, 128, 3, 4, 4]        [-1, 128, 3, 4, 4]        256                       [128]                     128
|    |    |    |    |    └─ReLU6: 6-189            [-1, 128, 3, 4, 4]        [-1, 128, 3, 4, 4]        --                        --                        --
|    |    |    └─SepConv3d: 4-50                   [-1, 128, 3, 4, 4]        [-1, 128, 3, 4, 4]        --                        --                        --
|    |    |    |    └─ConvBNReLU: 5-96             [-1, 128, 3, 4, 4]        [-1, 128, 3, 4, 4]        --                        --                        --
|    |    |    |    |    └─Conv3d: 6-190           [-1, 128, 3, 4, 4]        [-1, 128, 3, 4, 4]        3,456                     [1, 128, 3, 3, 3]         165,888
|    |    |    |    |    └─BatchNorm3d: 6-191      [-1, 128, 3, 4, 4]        [-1, 128, 3, 4, 4]        256                       [128]                     128
|    |    |    |    |    └─ReLU6: 6-192            [-1, 128, 3, 4, 4]        [-1, 128, 3, 4, 4]        --                        --                        --
|    |    |    |    └─ConvBNReLU: 5-97             [-1, 128, 3, 4, 4]        [-1, 128, 3, 4, 4]        --                        --                        --
|    |    |    |    |    └─Conv3d: 6-193           [-1, 128, 3, 4, 4]        [-1, 128, 3, 4, 4]        16,384                    [128, 128, 1, 1, 1]       786,432
|    |    |    |    |    └─BatchNorm3d: 6-194      [-1, 128, 3, 4, 4]        [-1, 128, 3, 4, 4]        256                       [128]                     128
|    |    |    |    |    └─ReLU6: 6-195            [-1, 128, 3, 4, 4]        [-1, 128, 3, 4, 4]        --                        --                        --
|    |    |    └─Upsample: 4-51                    [-1, 128, 3, 4, 4]        [-1, 128, 3, 8, 8]        --                        --                        --
|    |    └─Deconv: 3-28                           [-1, 128, 3, 8, 8]        [-1, 64, 6, 16, 16]       --                        --                        --
|    |    |    └─BasicConv3d: 4-52                 [-1, 128, 3, 8, 8]        [-1, 64, 3, 8, 8]         --                        --                        --
|    |    |    |    └─ConvBNReLU: 5-98             [-1, 128, 3, 8, 8]        [-1, 64, 3, 8, 8]         --                        --                        --
|    |    |    |    |    └─Conv3d: 6-196           [-1, 128, 3, 8, 8]        [-1, 64, 3, 8, 8]         221,184                   [128, 64, 3, 3, 3]        42,467,328
|    |    |    |    |    └─BatchNorm3d: 6-197      [-1, 64, 3, 8, 8]         [-1, 64, 3, 8, 8]         128                       [64]                      64
|    |    |    |    |    └─ReLU6: 6-198            [-1, 64, 3, 8, 8]         [-1, 64, 3, 8, 8]         --                        --                        --
|    |    |    └─SepConv3d: 4-53                   [-1, 64, 3, 8, 8]         [-1, 64, 3, 8, 8]         --                        --                        --
|    |    |    |    └─ConvBNReLU: 5-99             [-1, 64, 3, 8, 8]         [-1, 64, 3, 8, 8]         --                        --                        --
|    |    |    |    |    └─Conv3d: 6-199           [-1, 64, 3, 8, 8]         [-1, 64, 3, 8, 8]         1,728                     [1, 64, 3, 3, 3]          331,776
|    |    |    |    |    └─BatchNorm3d: 6-200      [-1, 64, 3, 8, 8]         [-1, 64, 3, 8, 8]         128                       [64]                      64
|    |    |    |    |    └─ReLU6: 6-201            [-1, 64, 3, 8, 8]         [-1, 64, 3, 8, 8]         --                        --                        --
|    |    |    |    └─ConvBNReLU: 5-100            [-1, 64, 3, 8, 8]         [-1, 64, 3, 8, 8]         --                        --                        --
|    |    |    |    |    └─Conv3d: 6-202           [-1, 64, 3, 8, 8]         [-1, 64, 3, 8, 8]         4,096                     [64, 64, 1, 1, 1]         786,432
|    |    |    |    |    └─BatchNorm3d: 6-203      [-1, 64, 3, 8, 8]         [-1, 64, 3, 8, 8]         128                       [64]                      64
|    |    |    |    |    └─ReLU6: 6-204            [-1, 64, 3, 8, 8]         [-1, 64, 3, 8, 8]         --                        --                        --
|    |    |    └─SepConv3d: 4-54                   [-1, 64, 3, 8, 8]         [-1, 64, 3, 8, 8]         --                        --                        --
|    |    |    |    └─ConvBNReLU: 5-101            [-1, 64, 3, 8, 8]         [-1, 64, 3, 8, 8]         --                        --                        --
|    |    |    |    |    └─Conv3d: 6-205           [-1, 64, 3, 8, 8]         [-1, 64, 3, 8, 8]         1,728                     [1, 64, 3, 3, 3]          331,776
|    |    |    |    |    └─BatchNorm3d: 6-206      [-1, 64, 3, 8, 8]         [-1, 64, 3, 8, 8]         128                       [64]                      64
|    |    |    |    |    └─ReLU6: 6-207            [-1, 64, 3, 8, 8]         [-1, 64, 3, 8, 8]         --                        --                        --
|    |    |    |    └─ConvBNReLU: 5-102            [-1, 64, 3, 8, 8]         [-1, 64, 3, 8, 8]         --                        --                        --
|    |    |    |    |    └─Conv3d: 6-208           [-1, 64, 3, 8, 8]         [-1, 64, 3, 8, 8]         4,096                     [64, 64, 1, 1, 1]         786,432
|    |    |    |    |    └─BatchNorm3d: 6-209      [-1, 64, 3, 8, 8]         [-1, 64, 3, 8, 8]         128                       [64]                      64
|    |    |    |    |    └─ReLU6: 6-210            [-1, 64, 3, 8, 8]         [-1, 64, 3, 8, 8]         --                        --                        --
|    |    |    └─Upsample: 4-55                    [-1, 64, 3, 8, 8]         [-1, 64, 6, 16, 16]       --                        --                        --
|    |    └─Deconv: 3-29                           [-1, 64, 6, 16, 16]       [-1, 32, 12, 32, 32]      --                        --                        --
|    |    |    └─BasicConv3d: 4-56                 [-1, 64, 6, 16, 16]       [-1, 32, 6, 16, 16]       --                        --                        --
|    |    |    |    └─ConvBNReLU: 5-103            [-1, 64, 6, 16, 16]       [-1, 32, 6, 16, 16]       --                        --                        --
|    |    |    |    |    └─Conv3d: 6-211           [-1, 64, 6, 16, 16]       [-1, 32, 6, 16, 16]       55,296                    [64, 32, 3, 3, 3]         84,934,656
|    |    |    |    |    └─BatchNorm3d: 6-212      [-1, 32, 6, 16, 16]       [-1, 32, 6, 16, 16]       64                        [32]                      32
|    |    |    |    |    └─ReLU6: 6-213            [-1, 32, 6, 16, 16]       [-1, 32, 6, 16, 16]       --                        --                        --
|    |    |    └─SepConv3d: 4-57                   [-1, 32, 6, 16, 16]       [-1, 32, 6, 16, 16]       --                        --                        --
|    |    |    |    └─ConvBNReLU: 5-104            [-1, 32, 6, 16, 16]       [-1, 32, 6, 16, 16]       --                        --                        --
|    |    |    |    |    └─Conv3d: 6-214           [-1, 32, 6, 16, 16]       [-1, 32, 6, 16, 16]       864                       [1, 32, 3, 3, 3]          1,327,104
|    |    |    |    |    └─BatchNorm3d: 6-215      [-1, 32, 6, 16, 16]       [-1, 32, 6, 16, 16]       64                        [32]                      32
|    |    |    |    |    └─ReLU6: 6-216            [-1, 32, 6, 16, 16]       [-1, 32, 6, 16, 16]       --                        --                        --
|    |    |    |    └─ConvBNReLU: 5-105            [-1, 32, 6, 16, 16]       [-1, 32, 6, 16, 16]       --                        --                        --
|    |    |    |    |    └─Conv3d: 6-217           [-1, 32, 6, 16, 16]       [-1, 32, 6, 16, 16]       1,024                     [32, 32, 1, 1, 1]         1,572,864
|    |    |    |    |    └─BatchNorm3d: 6-218      [-1, 32, 6, 16, 16]       [-1, 32, 6, 16, 16]       64                        [32]                      32
|    |    |    |    |    └─ReLU6: 6-219            [-1, 32, 6, 16, 16]       [-1, 32, 6, 16, 16]       --                        --                        --
|    |    |    └─Upsample: 4-58                    [-1, 32, 6, 16, 16]       [-1, 32, 12, 32, 32]      --                        --                        --
|    |    └─Deconv: 3-30                           [-1, 32, 12, 32, 32]      [-1, 8, 24, 64, 64]       --                        --                        --
|    |    |    └─BasicConv3d: 4-59                 [-1, 32, 12, 32, 32]      [-1, 8, 12, 32, 32]       --                        --                        --
|    |    |    |    └─ConvBNReLU: 5-106            [-1, 32, 12, 32, 32]      [-1, 8, 12, 32, 32]       --                        --                        --
|    |    |    |    |    └─Conv3d: 6-220           [-1, 32, 12, 32, 32]      [-1, 8, 12, 32, 32]       6,912                     [32, 8, 3, 3, 3]          84,934,656
|    |    |    |    |    └─BatchNorm3d: 6-221      [-1, 8, 12, 32, 32]       [-1, 8, 12, 32, 32]       16                        [8]                       8
|    |    |    |    |    └─ReLU6: 6-222            [-1, 8, 12, 32, 32]       [-1, 8, 12, 32, 32]       --                        --                        --
|    |    |    └─SepConv3d: 4-60                   [-1, 8, 12, 32, 32]       [-1, 8, 12, 32, 32]       --                        --                        --
|    |    |    |    └─ConvBNReLU: 5-107            [-1, 8, 12, 32, 32]       [-1, 8, 12, 32, 32]       --                        --                        --
|    |    |    |    |    └─Conv3d: 6-223           [-1, 8, 12, 32, 32]       [-1, 8, 12, 32, 32]       216                       [1, 8, 3, 3, 3]           2,654,208
|    |    |    |    |    └─BatchNorm3d: 6-224      [-1, 8, 12, 32, 32]       [-1, 8, 12, 32, 32]       16                        [8]                       8
|    |    |    |    |    └─ReLU6: 6-225            [-1, 8, 12, 32, 32]       [-1, 8, 12, 32, 32]       --                        --                        --
|    |    |    |    └─ConvBNReLU: 5-108            [-1, 8, 12, 32, 32]       [-1, 8, 12, 32, 32]       --                        --                        --
|    |    |    |    |    └─Conv3d: 6-226           [-1, 8, 12, 32, 32]       [-1, 8, 12, 32, 32]       64                        [8, 8, 1, 1, 1]           786,432
|    |    |    |    |    └─BatchNorm3d: 6-227      [-1, 8, 12, 32, 32]       [-1, 8, 12, 32, 32]       16                        [8]                       8
|    |    |    |    |    └─ReLU6: 6-228            [-1, 8, 12, 32, 32]       [-1, 8, 12, 32, 32]       --                        --                        --
|    |    |    └─Upsample: 4-61                    [-1, 8, 12, 32, 32]       [-1, 8, 24, 64, 64]       --                        --                        --
|    |    └─Deconv: 3-31                           [-1, 8, 24, 64, 64]       [-1, 3, 48, 128, 128]     --                        --                        --
|    |    |    └─BasicConv3d: 4-62                 [-1, 8, 24, 64, 64]       [-1, 3, 24, 64, 64]       --                        --                        --
|    |    |    |    └─ConvBNReLU: 5-109            [-1, 8, 24, 64, 64]       [-1, 3, 24, 64, 64]       --                        --                        --
|    |    |    |    |    └─Conv3d: 6-229           [-1, 8, 24, 64, 64]       [-1, 3, 24, 64, 64]       648                       [8, 3, 3, 3, 3]           63,700,992
|    |    |    |    |    └─BatchNorm3d: 6-230      [-1, 3, 24, 64, 64]       [-1, 3, 24, 64, 64]       6                         [3]                       3
|    |    |    |    |    └─ReLU6: 6-231            [-1, 3, 24, 64, 64]       [-1, 3, 24, 64, 64]       --                        --                        --
|    |    |    └─SepConv3d: 4-63                   [-1, 3, 24, 64, 64]       [-1, 3, 24, 64, 64]       --                        --                        --
|    |    |    |    └─ConvBNReLU: 5-110            [-1, 3, 24, 64, 64]       [-1, 3, 24, 64, 64]       --                        --                        --
|    |    |    |    |    └─Conv3d: 6-232           [-1, 3, 24, 64, 64]       [-1, 3, 24, 64, 64]       81                        [1, 3, 3, 3, 3]           7,962,624
|    |    |    |    |    └─BatchNorm3d: 6-233      [-1, 3, 24, 64, 64]       [-1, 3, 24, 64, 64]       6                         [3]                       3
|    |    |    |    |    └─ReLU6: 6-234            [-1, 3, 24, 64, 64]       [-1, 3, 24, 64, 64]       --                        --                        --
|    |    |    |    └─ConvBNReLU: 5-111            [-1, 3, 24, 64, 64]       [-1, 3, 24, 64, 64]       --                        --                        --
|    |    |    |    |    └─Conv3d: 6-235           [-1, 3, 24, 64, 64]       [-1, 3, 24, 64, 64]       9                         [3, 3, 1, 1, 1]           884,736
|    |    |    |    |    └─BatchNorm3d: 6-236      [-1, 3, 24, 64, 64]       [-1, 3, 24, 64, 64]       6                         [3]                       3
|    |    |    |    |    └─ReLU6: 6-237            [-1, 3, 24, 64, 64]       [-1, 3, 24, 64, 64]       --                        --                        --
|    |    |    └─Upsample: 4-64                    [-1, 3, 24, 64, 64]       [-1, 3, 48, 128, 128]     --                        --                        --
|    └─Conv3d: 2-8                                 [-1, 3, 48, 128, 128]     [-1, 2, 48, 128, 128]     8                         [3, 2, 1, 1, 1]           4,718,592
├─Conv3d: 1-6                                      [-1, 8, 48, 128, 128]     [-1, 2, 48, 128, 128]     18                        [8, 2, 1, 1, 1]           12,582,912
===============================================================================================================================================================================
Total params: 2,445,730
Trainable params: 2,445,730
Non-trainable params: 0
Total mult-adds (G): 2.52
===============================================================================================================================================================================
…
