…
model_summary: 
===============================================================================================================================================================================
Layer (type:depth-idx)                             Input Shape               Output Shape              Param #                   Kernel Shape              Mult-Adds
===============================================================================================================================================================================
├─S3D_FeatureExtractor: 1-1                        [-1, 1, 48, 128, 128]     [-1, 64, 24, 32, 32]      --                        --                        --
|    └─Sequential: 2-1                             [-1, 1, 48, 128, 128]     [-1, 64, 24, 32, 32]      --                        --                        --
|    |    └─SepConv3d: 3-1                         [-1, 1, 48, 128, 128]     [-1, 64, 24, 64, 64]      --                        --                        --
|    |    |    └─Conv3d: 4-1                       [-1, 1, 48, 128, 128]     [-1, 64, 48, 64, 64]      3,136                     [1, 64, 1, 7, 7]          616,562,688
|    |    |    └─BatchNorm3d: 4-2                  [-1, 64, 48, 64, 64]      [-1, 64, 48, 64, 64]      128                       [64]                      64
|    |    |    └─ReLU: 4-3                         [-1, 64, 48, 64, 64]      [-1, 64, 48, 64, 64]      --                        --                        --
|    |    |    └─Conv3d: 4-4                       [-1, 64, 48, 64, 64]      [-1, 64, 24, 64, 64]      28,672                    [64, 64, 7, 1, 1]         2,818,572,288
|    |    |    └─BatchNorm3d: 4-5                  [-1, 64, 24, 64, 64]      [-1, 64, 24, 64, 64]      128                       [64]                      64
|    |    |    └─ReLU: 4-6                         [-1, 64, 24, 64, 64]      [-1, 64, 24, 64, 64]      --                        --                        --
|    |    └─MaxPool3d: 3-2                         [-1, 64, 24, 64, 64]      [-1, 64, 24, 32, 32]      --                        --                        --
|    └─Sequential: 2-2                             [-1, 64, 24, 32, 32]      [-1, 192, 24, 16, 16]     --                        --                        --
|    |    └─BasicConv3d: 3-3                       [-1, 64, 24, 32, 32]      [-1, 64, 24, 32, 32]      --                        --                        --
|    |    |    └─Conv3d: 4-7                       [-1, 64, 24, 32, 32]      [-1, 64, 24, 32, 32]      4,096                     [64, 64, 1, 1, 1]         100,663,296
|    |    |    └─BatchNorm3d: 4-8                  [-1, 64, 24, 32, 32]      [-1, 64, 24, 32, 32]      128                       [64]                      64
|    |    |    └─ReLU: 4-9                         [-1, 64, 24, 32, 32]      [-1, 64, 24, 32, 32]      --                        --                        --
|    |    └─SepConv3d: 3-4                         [-1, 64, 24, 32, 32]      [-1, 192, 24, 32, 32]     --                        --                        --
|    |    |    └─Conv3d: 4-10                      [-1, 64, 24, 32, 32]      [-1, 192, 24, 32, 32]     110,592                   [64, 192, 1, 3, 3]        2,717,908,992
|    |    |    └─BatchNorm3d: 4-11                 [-1, 192, 24, 32, 32]     [-1, 192, 24, 32, 32]     384                       [192]                     192
|    |    |    └─ReLU: 4-12                        [-1, 192, 24, 32, 32]     [-1, 192, 24, 32, 32]     --                        --                        --
|    |    |    └─Conv3d: 4-13                      [-1, 192, 24, 32, 32]     [-1, 192, 24, 32, 32]     110,592                   [192, 192, 3, 1, 1]       2,717,908,992
|    |    |    └─BatchNorm3d: 4-14                 [-1, 192, 24, 32, 32]     [-1, 192, 24, 32, 32]     384                       [192]                     192
|    |    |    └─ReLU: 4-15                        [-1, 192, 24, 32, 32]     [-1, 192, 24, 32, 32]     --                        --                        --
|    |    └─MaxPool3d: 3-5                         [-1, 192, 24, 32, 32]     [-1, 192, 24, 16, 16]     --                        --                        --
|    └─Sequential: 2-3                             [-1, 192, 24, 16, 16]     [-1, 480, 12, 8, 8]       --                        --                        --
|    |    └─Mixed_3b: 3-6                          [-1, 192, 24, 16, 16]     [-1, 256, 24, 16, 16]     --                        --                        --
|    |    |    └─Sequential: 4-16                  [-1, 192, 24, 16, 16]     [-1, 64, 24, 16, 16]      --                        --                        --
|    |    |    |    └─BasicConv3d: 5-1             [-1, 192, 24, 16, 16]     [-1, 64, 24, 16, 16]      --                        --                        --
|    |    |    |    |    └─Conv3d: 6-1             [-1, 192, 24, 16, 16]     [-1, 64, 24, 16, 16]      12,288                    [192, 64, 1, 1, 1]        75,497,472
|    |    |    |    |    └─BatchNorm3d: 6-2        [-1, 64, 24, 16, 16]      [-1, 64, 24, 16, 16]      128                       [64]                      64
|    |    |    |    |    └─ReLU: 6-3               [-1, 64, 24, 16, 16]      [-1, 64, 24, 16, 16]      --                        --                        --
|    |    |    └─Sequential: 4-17                  [-1, 192, 24, 16, 16]     [-1, 128, 24, 16, 16]     --                        --                        --
|    |    |    |    └─BasicConv3d: 5-2             [-1, 192, 24, 16, 16]     [-1, 96, 24, 16, 16]      --                        --                        --
|    |    |    |    |    └─Conv3d: 6-4             [-1, 192, 24, 16, 16]     [-1, 96, 24, 16, 16]      18,432                    [192, 96, 1, 1, 1]        113,246,208
|    |    |    |    |    └─BatchNorm3d: 6-5        [-1, 96, 24, 16, 16]      [-1, 96, 24, 16, 16]      192                       [96]                      96
|    |    |    |    |    └─ReLU: 6-6               [-1, 96, 24, 16, 16]      [-1, 96, 24, 16, 16]      --                        --                        --
|    |    |    |    └─SepConv3d: 5-3               [-1, 96, 24, 16, 16]      [-1, 128, 24, 16, 16]     --                        --                        --
|    |    |    |    |    └─Conv3d: 6-7             [-1, 96, 24, 16, 16]      [-1, 128, 24, 16, 16]     110,592                   [96, 128, 1, 3, 3]        679,477,248
|    |    |    |    |    └─BatchNorm3d: 6-8        [-1, 128, 24, 16, 16]     [-1, 128, 24, 16, 16]     256                       [128]                     128
|    |    |    |    |    └─ReLU: 6-9               [-1, 128, 24, 16, 16]     [-1, 128, 24, 16, 16]     --                        --                        --
|    |    |    |    |    └─Conv3d: 6-10            [-1, 128, 24, 16, 16]     [-1, 128, 24, 16, 16]     49,152                    [128, 128, 3, 1, 1]       301,989,888
|    |    |    |    |    └─BatchNorm3d: 6-11       [-1, 128, 24, 16, 16]     [-1, 128, 24, 16, 16]     256                       [128]                     128
|    |    |    |    |    └─ReLU: 6-12              [-1, 128, 24, 16, 16]     [-1, 128, 24, 16, 16]     --                        --                        --
|    |    |    └─Sequential: 4-18                  [-1, 192, 24, 16, 16]     [-1, 32, 24, 16, 16]      --                        --                        --
|    |    |    |    └─BasicConv3d: 5-4             [-1, 192, 24, 16, 16]     [-1, 16, 24, 16, 16]      --                        --                        --
|    |    |    |    |    └─Conv3d: 6-13            [-1, 192, 24, 16, 16]     [-1, 16, 24, 16, 16]      3,072                     [192, 16, 1, 1, 1]        18,874,368
|    |    |    |    |    └─BatchNorm3d: 6-14       [-1, 16, 24, 16, 16]      [-1, 16, 24, 16, 16]      32                        [16]                      16
|    |    |    |    |    └─ReLU: 6-15              [-1, 16, 24, 16, 16]      [-1, 16, 24, 16, 16]      --                        --                        --
|    |    |    |    └─SepConv3d: 5-5               [-1, 16, 24, 16, 16]      [-1, 32, 24, 16, 16]      --                        --                        --
|    |    |    |    |    └─Conv3d: 6-16            [-1, 16, 24, 16, 16]      [-1, 32, 24, 16, 16]      4,608                     [16, 32, 1, 3, 3]         28,311,552
|    |    |    |    |    └─BatchNorm3d: 6-17       [-1, 32, 24, 16, 16]      [-1, 32, 24, 16, 16]      64                        [32]                      32
|    |    |    |    |    └─ReLU: 6-18              [-1, 32, 24, 16, 16]      [-1, 32, 24, 16, 16]      --                        --                        --
|    |    |    |    |    └─Conv3d: 6-19            [-1, 32, 24, 16, 16]      [-1, 32, 24, 16, 16]      3,072                     [32, 32, 3, 1, 1]         18,874,368
|    |    |    |    |    └─BatchNorm3d: 6-20       [-1, 32, 24, 16, 16]      [-1, 32, 24, 16, 16]      64                        [32]                      32
|    |    |    |    |    └─ReLU: 6-21              [-1, 32, 24, 16, 16]      [-1, 32, 24, 16, 16]      --                        --                        --
|    |    |    └─Sequential: 4-19                  [-1, 192, 24, 16, 16]     [-1, 32, 24, 16, 16]      --                        --                        --
|    |    |    |    └─MaxPool3d: 5-6               [-1, 192, 24, 16, 16]     [-1, 192, 24, 16, 16]     --                        --                        --
|    |    |    |    └─BasicConv3d: 5-7             [-1, 192, 24, 16, 16]     [-1, 32, 24, 16, 16]      --                        --                        --
|    |    |    |    |    └─Conv3d: 6-22            [-1, 192, 24, 16, 16]     [-1, 32, 24, 16, 16]      6,144                     [192, 32, 1, 1, 1]        37,748,736
|    |    |    |    |    └─BatchNorm3d: 6-23       [-1, 32, 24, 16, 16]      [-1, 32, 24, 16, 16]      64                        [32]                      32
|    |    |    |    |    └─ReLU: 6-24              [-1, 32, 24, 16, 16]      [-1, 32, 24, 16, 16]      --                        --                        --
|    |    └─Mixed_3c: 3-7                          [-1, 256, 24, 16, 16]     [-1, 480, 24, 16, 16]     --                        --                        --
|    |    |    └─Sequential: 4-20                  [-1, 256, 24, 16, 16]     [-1, 128, 24, 16, 16]     --                        --                        --
|    |    |    |    └─BasicConv3d: 5-8             [-1, 256, 24, 16, 16]     [-1, 128, 24, 16, 16]     --                        --                        --
|    |    |    |    |    └─Conv3d: 6-25            [-1, 256, 24, 16, 16]     [-1, 128, 24, 16, 16]     32,768                    [256, 128, 1, 1, 1]       201,326,592
|    |    |    |    |    └─BatchNorm3d: 6-26       [-1, 128, 24, 16, 16]     [-1, 128, 24, 16, 16]     256                       [128]                     128
|    |    |    |    |    └─ReLU: 6-27              [-1, 128, 24, 16, 16]     [-1, 128, 24, 16, 16]     --                        --                        --
|    |    |    └─Sequential: 4-21                  [-1, 256, 24, 16, 16]     [-1, 192, 24, 16, 16]     --                        --                        --
|    |    |    |    └─BasicConv3d: 5-9             [-1, 256, 24, 16, 16]     [-1, 128, 24, 16, 16]     --                        --                        --
|    |    |    |    |    └─Conv3d: 6-28            [-1, 256, 24, 16, 16]     [-1, 128, 24, 16, 16]     32,768                    [256, 128, 1, 1, 1]       201,326,592
|    |    |    |    |    └─BatchNorm3d: 6-29       [-1, 128, 24, 16, 16]     [-1, 128, 24, 16, 16]     256                       [128]                     128
|    |    |    |    |    └─ReLU: 6-30              [-1, 128, 24, 16, 16]     [-1, 128, 24, 16, 16]     --                        --                        --
|    |    |    |    └─SepConv3d: 5-10              [-1, 128, 24, 16, 16]     [-1, 192, 24, 16, 16]     --                        --                        --
|    |    |    |    |    └─Conv3d: 6-31            [-1, 128, 24, 16, 16]     [-1, 192, 24, 16, 16]     221,184                   [128, 192, 1, 3, 3]       1,358,954,496
|    |    |    |    |    └─BatchNorm3d: 6-32       [-1, 192, 24, 16, 16]     [-1, 192, 24, 16, 16]     384                       [192]                     192
|    |    |    |    |    └─ReLU: 6-33              [-1, 192, 24, 16, 16]     [-1, 192, 24, 16, 16]     --                        --                        --
|    |    |    |    |    └─Conv3d: 6-34            [-1, 192, 24, 16, 16]     [-1, 192, 24, 16, 16]     110,592                   [192, 192, 3, 1, 1]       679,477,248
|    |    |    |    |    └─BatchNorm3d: 6-35       [-1, 192, 24, 16, 16]     [-1, 192, 24, 16, 16]     384                       [192]                     192
|    |    |    |    |    └─ReLU: 6-36              [-1, 192, 24, 16, 16]     [-1, 192, 24, 16, 16]     --                        --                        --
|    |    |    └─Sequential: 4-22                  [-1, 256, 24, 16, 16]     [-1, 96, 24, 16, 16]      --                        --                        --
|    |    |    |    └─BasicConv3d: 5-11            [-1, 256, 24, 16, 16]     [-1, 32, 24, 16, 16]      --                        --                        --
|    |    |    |    |    └─Conv3d: 6-37            [-1, 256, 24, 16, 16]     [-1, 32, 24, 16, 16]      8,192                     [256, 32, 1, 1, 1]        50,331,648
|    |    |    |    |    └─BatchNorm3d: 6-38       [-1, 32, 24, 16, 16]      [-1, 32, 24, 16, 16]      64                        [32]                      32
|    |    |    |    |    └─ReLU: 6-39              [-1, 32, 24, 16, 16]      [-1, 32, 24, 16, 16]      --                        --                        --
|    |    |    |    └─SepConv3d: 5-12              [-1, 32, 24, 16, 16]      [-1, 96, 24, 16, 16]      --                        --                        --
|    |    |    |    |    └─Conv3d: 6-40            [-1, 32, 24, 16, 16]      [-1, 96, 24, 16, 16]      27,648                    [32, 96, 1, 3, 3]         169,869,312
|    |    |    |    |    └─BatchNorm3d: 6-41       [-1, 96, 24, 16, 16]      [-1, 96, 24, 16, 16]      192                       [96]                      96
|    |    |    |    |    └─ReLU: 6-42              [-1, 96, 24, 16, 16]      [-1, 96, 24, 16, 16]      --                        --                        --
|    |    |    |    |    └─Conv3d: 6-43            [-1, 96, 24, 16, 16]      [-1, 96, 24, 16, 16]      27,648                    [96, 96, 3, 1, 1]         169,869,312
|    |    |    |    |    └─BatchNorm3d: 6-44       [-1, 96, 24, 16, 16]      [-1, 96, 24, 16, 16]      192                       [96]                      96
|    |    |    |    |    └─ReLU: 6-45              [-1, 96, 24, 16, 16]      [-1, 96, 24, 16, 16]      --                        --                        --
|    |    |    └─Sequential: 4-23                  [-1, 256, 24, 16, 16]     [-1, 64, 24, 16, 16]      --                        --                        --
|    |    |    |    └─MaxPool3d: 5-13              [-1, 256, 24, 16, 16]     [-1, 256, 24, 16, 16]     --                        --                        --
|    |    |    |    └─BasicConv3d: 5-14            [-1, 256, 24, 16, 16]     [-1, 64, 24, 16, 16]      --                        --                        --
|    |    |    |    |    └─Conv3d: 6-46            [-1, 256, 24, 16, 16]     [-1, 64, 24, 16, 16]      16,384                    [256, 64, 1, 1, 1]        100,663,296
|    |    |    |    |    └─BatchNorm3d: 6-47       [-1, 64, 24, 16, 16]      [-1, 64, 24, 16, 16]      128                       [64]                      64
|    |    |    |    |    └─ReLU: 6-48              [-1, 64, 24, 16, 16]      [-1, 64, 24, 16, 16]      --                        --                        --
|    |    └─MaxPool3d: 3-8                         [-1, 480, 24, 16, 16]     [-1, 480, 12, 8, 8]       --                        --                        --
|    └─Sequential: 2-4                             [-1, 480, 12, 8, 8]       [-1, 832, 6, 4, 4]        --                        --                        --
|    |    └─Mixed_4b: 3-9                          [-1, 480, 12, 8, 8]       [-1, 512, 12, 8, 8]       --                        --                        --
|    |    |    └─Sequential: 4-24                  [-1, 480, 12, 8, 8]       [-1, 192, 12, 8, 8]       --                        --                        --
|    |    |    |    └─BasicConv3d: 5-15            [-1, 480, 12, 8, 8]       [-1, 192, 12, 8, 8]       --                        --                        --
|    |    |    |    |    └─Conv3d: 6-49            [-1, 480, 12, 8, 8]       [-1, 192, 12, 8, 8]       92,160                    [480, 192, 1, 1, 1]       70,778,880
|    |    |    |    |    └─BatchNorm3d: 6-50       [-1, 192, 12, 8, 8]       [-1, 192, 12, 8, 8]       384                       [192]                     192
|    |    |    |    |    └─ReLU: 6-51              [-1, 192, 12, 8, 8]       [-1, 192, 12, 8, 8]       --                        --                        --
|    |    |    └─Sequential: 4-25                  [-1, 480, 12, 8, 8]       [-1, 208, 12, 8, 8]       --                        --                        --
|    |    |    |    └─BasicConv3d: 5-16            [-1, 480, 12, 8, 8]       [-1, 96, 12, 8, 8]        --                        --                        --
|    |    |    |    |    └─Conv3d: 6-52            [-1, 480, 12, 8, 8]       [-1, 96, 12, 8, 8]        46,080                    [480, 96, 1, 1, 1]        35,389,440
|    |    |    |    |    └─BatchNorm3d: 6-53       [-1, 96, 12, 8, 8]        [-1, 96, 12, 8, 8]        192                       [96]                      96
|    |    |    |    |    └─ReLU: 6-54              [-1, 96, 12, 8, 8]        [-1, 96, 12, 8, 8]        --                        --                        --
|    |    |    |    └─SepConv3d: 5-17              [-1, 96, 12, 8, 8]        [-1, 208, 12, 8, 8]       --                        --                        --
|    |    |    |    |    └─Conv3d: 6-55            [-1, 96, 12, 8, 8]        [-1, 208, 12, 8, 8]       179,712                   [96, 208, 1, 3, 3]        138,018,816
|    |    |    |    |    └─BatchNorm3d: 6-56       [-1, 208, 12, 8, 8]       [-1, 208, 12, 8, 8]       416                       [208]                     208
|    |    |    |    |    └─ReLU: 6-57              [-1, 208, 12, 8, 8]       [-1, 208, 12, 8, 8]       --                        --                        --
|    |    |    |    |    └─Conv3d: 6-58            [-1, 208, 12, 8, 8]       [-1, 208, 12, 8, 8]       129,792                   [208, 208, 3, 1, 1]       99,680,256
|    |    |    |    |    └─BatchNorm3d: 6-59       [-1, 208, 12, 8, 8]       [-1, 208, 12, 8, 8]       416                       [208]                     208
|    |    |    |    |    └─ReLU: 6-60              [-1, 208, 12, 8, 8]       [-1, 208, 12, 8, 8]       --                        --                        --
|    |    |    └─Sequential: 4-26                  [-1, 480, 12, 8, 8]       [-1, 48, 12, 8, 8]        --                        --                        --
|    |    |    |    └─BasicConv3d: 5-18            [-1, 480, 12, 8, 8]       [-1, 16, 12, 8, 8]        --                        --                        --
|    |    |    |    |    └─Conv3d: 6-61            [-1, 480, 12, 8, 8]       [-1, 16, 12, 8, 8]        7,680                     [480, 16, 1, 1, 1]        5,898,240
|    |    |    |    |    └─BatchNorm3d: 6-62       [-1, 16, 12, 8, 8]        [-1, 16, 12, 8, 8]        32                        [16]                      16
|    |    |    |    |    └─ReLU: 6-63              [-1, 16, 12, 8, 8]        [-1, 16, 12, 8, 8]        --                        --                        --
|    |    |    |    └─SepConv3d: 5-19              [-1, 16, 12, 8, 8]        [-1, 48, 12, 8, 8]        --                        --                        --
|    |    |    |    |    └─Conv3d: 6-64            [-1, 16, 12, 8, 8]        [-1, 48, 12, 8, 8]        6,912                     [16, 48, 1, 3, 3]         5,308,416
|    |    |    |    |    └─BatchNorm3d: 6-65       [-1, 48, 12, 8, 8]        [-1, 48, 12, 8, 8]        96                        [48]                      48
|    |    |    |    |    └─ReLU: 6-66              [-1, 48, 12, 8, 8]        [-1, 48, 12, 8, 8]        --                        --                        --
|    |    |    |    |    └─Conv3d: 6-67            [-1, 48, 12, 8, 8]        [-1, 48, 12, 8, 8]        6,912                     [48, 48, 3, 1, 1]         5,308,416
|    |    |    |    |    └─BatchNorm3d: 6-68       [-1, 48, 12, 8, 8]        [-1, 48, 12, 8, 8]        96                        [48]                      48
|    |    |    |    |    └─ReLU: 6-69              [-1, 48, 12, 8, 8]        [-1, 48, 12, 8, 8]        --                        --                        --
|    |    |    └─Sequential: 4-27                  [-1, 480, 12, 8, 8]       [-1, 64, 12, 8, 8]        --                        --                        --
|    |    |    |    └─MaxPool3d: 5-20              [-1, 480, 12, 8, 8]       [-1, 480, 12, 8, 8]       --                        --                        --
|    |    |    |    └─BasicConv3d: 5-21            [-1, 480, 12, 8, 8]       [-1, 64, 12, 8, 8]        --                        --                        --
|    |    |    |    |    └─Conv3d: 6-70            [-1, 480, 12, 8, 8]       [-1, 64, 12, 8, 8]        30,720                    [480, 64, 1, 1, 1]        23,592,960
|    |    |    |    |    └─BatchNorm3d: 6-71       [-1, 64, 12, 8, 8]        [-1, 64, 12, 8, 8]        128                       [64]                      64
|    |    |    |    |    └─ReLU: 6-72              [-1, 64, 12, 8, 8]        [-1, 64, 12, 8, 8]        --                        --                        --
|    |    └─Mixed_4c: 3-10                         [-1, 512, 12, 8, 8]       [-1, 512, 12, 8, 8]       --                        --                        --
|    |    |    └─Sequential: 4-28                  [-1, 512, 12, 8, 8]       [-1, 160, 12, 8, 8]       --                        --                        --
|    |    |    |    └─BasicConv3d: 5-22            [-1, 512, 12, 8, 8]       [-1, 160, 12, 8, 8]       --                        --                        --
|    |    |    |    |    └─Conv3d: 6-73            [-1, 512, 12, 8, 8]       [-1, 160, 12, 8, 8]       81,920                    [512, 160, 1, 1, 1]       62,914,560
|    |    |    |    |    └─BatchNorm3d: 6-74       [-1, 160, 12, 8, 8]       [-1, 160, 12, 8, 8]       320                       [160]                     160
|    |    |    |    |    └─ReLU: 6-75              [-1, 160, 12, 8, 8]       [-1, 160, 12, 8, 8]       --                        --                        --
|    |    |    └─Sequential: 4-29                  [-1, 512, 12, 8, 8]       [-1, 224, 12, 8, 8]       --                        --                        --
|    |    |    |    └─BasicConv3d: 5-23            [-1, 512, 12, 8, 8]       [-1, 112, 12, 8, 8]       --                        --                        --
|    |    |    |    |    └─Conv3d: 6-76            [-1, 512, 12, 8, 8]       [-1, 112, 12, 8, 8]       57,344                    [512, 112, 1, 1, 1]       44,040,192
|    |    |    |    |    └─BatchNorm3d: 6-77       [-1, 112, 12, 8, 8]       [-1, 112, 12, 8, 8]       224                       [112]                     112
|    |    |    |    |    └─ReLU: 6-78              [-1, 112, 12, 8, 8]       [-1, 112, 12, 8, 8]       --                        --                        --
|    |    |    |    └─SepConv3d: 5-24              [-1, 112, 12, 8, 8]       [-1, 224, 12, 8, 8]       --                        --                        --
|    |    |    |    |    └─Conv3d: 6-79            [-1, 112, 12, 8, 8]       [-1, 224, 12, 8, 8]       225,792                   [112, 224, 1, 3, 3]       173,408,256
|    |    |    |    |    └─BatchNorm3d: 6-80       [-1, 224, 12, 8, 8]       [-1, 224, 12, 8, 8]       448                       [224]                     224
|    |    |    |    |    └─ReLU: 6-81              [-1, 224, 12, 8, 8]       [-1, 224, 12, 8, 8]       --                        --                        --
|    |    |    |    |    └─Conv3d: 6-82            [-1, 224, 12, 8, 8]       [-1, 224, 12, 8, 8]       150,528                   [224, 224, 3, 1, 1]       115,605,504
|    |    |    |    |    └─BatchNorm3d: 6-83       [-1, 224, 12, 8, 8]       [-1, 224, 12, 8, 8]       448                       [224]                     224
|    |    |    |    |    └─ReLU: 6-84              [-1, 224, 12, 8, 8]       [-1, 224, 12, 8, 8]       --                        --                        --
|    |    |    └─Sequential: 4-30                  [-1, 512, 12, 8, 8]       [-1, 64, 12, 8, 8]        --                        --                        --
|    |    |    |    └─BasicConv3d: 5-25            [-1, 512, 12, 8, 8]       [-1, 24, 12, 8, 8]        --                        --                        --
|    |    |    |    |    └─Conv3d: 6-85            [-1, 512, 12, 8, 8]       [-1, 24, 12, 8, 8]        12,288                    [512, 24, 1, 1, 1]        9,437,184
|    |    |    |    |    └─BatchNorm3d: 6-86       [-1, 24, 12, 8, 8]        [-1, 24, 12, 8, 8]        48                        [24]                      24
|    |    |    |    |    └─ReLU: 6-87              [-1, 24, 12, 8, 8]        [-1, 24, 12, 8, 8]        --                        --                        --
|    |    |    |    └─SepConv3d: 5-26              [-1, 24, 12, 8, 8]        [-1, 64, 12, 8, 8]        --                        --                        --
|    |    |    |    |    └─Conv3d: 6-88            [-1, 24, 12, 8, 8]        [-1, 64, 12, 8, 8]        13,824                    [24, 64, 1, 3, 3]         10,616,832
|    |    |    |    |    └─BatchNorm3d: 6-89       [-1, 64, 12, 8, 8]        [-1, 64, 12, 8, 8]        128                       [64]                      64
|    |    |    |    |    └─ReLU: 6-90              [-1, 64, 12, 8, 8]        [-1, 64, 12, 8, 8]        --                        --                        --
|    |    |    |    |    └─Conv3d: 6-91            [-1, 64, 12, 8, 8]        [-1, 64, 12, 8, 8]        12,288                    [64, 64, 3, 1, 1]         9,437,184
|    |    |    |    |    └─BatchNorm3d: 6-92       [-1, 64, 12, 8, 8]        [-1, 64, 12, 8, 8]        128                       [64]                      64
|    |    |    |    |    └─ReLU: 6-93              [-1, 64, 12, 8, 8]        [-1, 64, 12, 8, 8]        --                        --                        --
|    |    |    └─Sequential: 4-31                  [-1, 512, 12, 8, 8]       [-1, 64, 12, 8, 8]        --                        --                        --
|    |    |    |    └─MaxPool3d: 5-27              [-1, 512, 12, 8, 8]       [-1, 512, 12, 8, 8]       --                        --                        --
|    |    |    |    └─BasicConv3d: 5-28            [-1, 512, 12, 8, 8]       [-1, 64, 12, 8, 8]        --                        --                        --
|    |    |    |    |    └─Conv3d: 6-94            [-1, 512, 12, 8, 8]       [-1, 64, 12, 8, 8]        32,768                    [512, 64, 1, 1, 1]        25,165,824
|    |    |    |    |    └─BatchNorm3d: 6-95       [-1, 64, 12, 8, 8]        [-1, 64, 12, 8, 8]        128                       [64]                      64
|    |    |    |    |    └─ReLU: 6-96              [-1, 64, 12, 8, 8]        [-1, 64, 12, 8, 8]        --                        --                        --
|    |    └─Mixed_4d: 3-11                         [-1, 512, 12, 8, 8]       [-1, 512, 12, 8, 8]       --                        --                        --
|    |    |    └─Sequential: 4-32                  [-1, 512, 12, 8, 8]       [-1, 128, 12, 8, 8]       --                        --                        --
|    |    |    |    └─BasicConv3d: 5-29            [-1, 512, 12, 8, 8]       [-1, 128, 12, 8, 8]       --                        --                        --
|    |    |    |    |    └─Conv3d: 6-97            [-1, 512, 12, 8, 8]       [-1, 128, 12, 8, 8]       65,536                    [512, 128, 1, 1, 1]       50,331,648
|    |    |    |    |    └─BatchNorm3d: 6-98       [-1, 128, 12, 8, 8]       [-1, 128, 12, 8, 8]       256                       [128]                     128
|    |    |    |    |    └─ReLU: 6-99              [-1, 128, 12, 8, 8]       [-1, 128, 12, 8, 8]       --                        --                        --
|    |    |    └─Sequential: 4-33                  [-1, 512, 12, 8, 8]       [-1, 256, 12, 8, 8]       --                        --                        --
|    |    |    |    └─BasicConv3d: 5-30            [-1, 512, 12, 8, 8]       [-1, 128, 12, 8, 8]       --                        --                        --
|    |    |    |    |    └─Conv3d: 6-100           [-1, 512, 12, 8, 8]       [-1, 128, 12, 8, 8]       65,536                    [512, 128, 1, 1, 1]       50,331,648
|    |    |    |    |    └─BatchNorm3d: 6-101      [-1, 128, 12, 8, 8]       [-1, 128, 12, 8, 8]       256                       [128]                     128
|    |    |    |    |    └─ReLU: 6-102             [-1, 128, 12, 8, 8]       [-1, 128, 12, 8, 8]       --                        --                        --
|    |    |    |    └─SepConv3d: 5-31              [-1, 128, 12, 8, 8]       [-1, 256, 12, 8, 8]       --                        --                        --
|    |    |    |    |    └─Conv3d: 6-103           [-1, 128, 12, 8, 8]       [-1, 256, 12, 8, 8]       294,912                   [128, 256, 1, 3, 3]       226,492,416
|    |    |    |    |    └─BatchNorm3d: 6-104      [-1, 256, 12, 8, 8]       [-1, 256, 12, 8, 8]       512                       [256]                     256
|    |    |    |    |    └─ReLU: 6-105             [-1, 256, 12, 8, 8]       [-1, 256, 12, 8, 8]       --                        --                        --
|    |    |    |    |    └─Conv3d: 6-106           [-1, 256, 12, 8, 8]       [-1, 256, 12, 8, 8]       196,608                   [256, 256, 3, 1, 1]       150,994,944
|    |    |    |    |    └─BatchNorm3d: 6-107      [-1, 256, 12, 8, 8]       [-1, 256, 12, 8, 8]       512                       [256]                     256
|    |    |    |    |    └─ReLU: 6-108             [-1, 256, 12, 8, 8]       [-1, 256, 12, 8, 8]       --                        --                        --
|    |    |    └─Sequential: 4-34                  [-1, 512, 12, 8, 8]       [-1, 64, 12, 8, 8]        --                        --                        --
|    |    |    |    └─BasicConv3d: 5-32            [-1, 512, 12, 8, 8]       [-1, 24, 12, 8, 8]        --                        --                        --
|    |    |    |    |    └─Conv3d: 6-109           [-1, 512, 12, 8, 8]       [-1, 24, 12, 8, 8]        12,288                    [512, 24, 1, 1, 1]        9,437,184
|    |    |    |    |    └─BatchNorm3d: 6-110      [-1, 24, 12, 8, 8]        [-1, 24, 12, 8, 8]        48                        [24]                      24
|    |    |    |    |    └─ReLU: 6-111             [-1, 24, 12, 8, 8]        [-1, 24, 12, 8, 8]        --                        --                        --
|    |    |    |    └─SepConv3d: 5-33              [-1, 24, 12, 8, 8]        [-1, 64, 12, 8, 8]        --                        --                        --
|    |    |    |    |    └─Conv3d: 6-112           [-1, 24, 12, 8, 8]        [-1, 64, 12, 8, 8]        13,824                    [24, 64, 1, 3, 3]         10,616,832
|    |    |    |    |    └─BatchNorm3d: 6-113      [-1, 64, 12, 8, 8]        [-1, 64, 12, 8, 8]        128                       [64]                      64
|    |    |    |    |    └─ReLU: 6-114             [-1, 64, 12, 8, 8]        [-1, 64, 12, 8, 8]        --                        --                        --
|    |    |    |    |    └─Conv3d: 6-115           [-1, 64, 12, 8, 8]        [-1, 64, 12, 8, 8]        12,288                    [64, 64, 3, 1, 1]         9,437,184
|    |    |    |    |    └─BatchNorm3d: 6-116      [-1, 64, 12, 8, 8]        [-1, 64, 12, 8, 8]        128                       [64]                      64
|    |    |    |    |    └─ReLU: 6-117             [-1, 64, 12, 8, 8]        [-1, 64, 12, 8, 8]        --                        --                        --
|    |    |    └─Sequential: 4-35                  [-1, 512, 12, 8, 8]       [-1, 64, 12, 8, 8]        --                        --                        --
|    |    |    |    └─MaxPool3d: 5-34              [-1, 512, 12, 8, 8]       [-1, 512, 12, 8, 8]       --                        --                        --
|    |    |    |    └─BasicConv3d: 5-35            [-1, 512, 12, 8, 8]       [-1, 64, 12, 8, 8]        --                        --                        --
|    |    |    |    |    └─Conv3d: 6-118           [-1, 512, 12, 8, 8]       [-1, 64, 12, 8, 8]        32,768                    [512, 64, 1, 1, 1]        25,165,824
|    |    |    |    |    └─BatchNorm3d: 6-119      [-1, 64, 12, 8, 8]        [-1, 64, 12, 8, 8]        128                       [64]                      64
|    |    |    |    |    └─ReLU: 6-120             [-1, 64, 12, 8, 8]        [-1, 64, 12, 8, 8]        --                        --                        --
|    |    └─Mixed_4e: 3-12                         [-1, 512, 12, 8, 8]       [-1, 528, 12, 8, 8]       --                        --                        --
|    |    |    └─Sequential: 4-36                  [-1, 512, 12, 8, 8]       [-1, 112, 12, 8, 8]       --                        --                        --
|    |    |    |    └─BasicConv3d: 5-36            [-1, 512, 12, 8, 8]       [-1, 112, 12, 8, 8]       --                        --                        --
|    |    |    |    |    └─Conv3d: 6-121           [-1, 512, 12, 8, 8]       [-1, 112, 12, 8, 8]       57,344                    [512, 112, 1, 1, 1]       44,040,192
|    |    |    |    |    └─BatchNorm3d: 6-122      [-1, 112, 12, 8, 8]       [-1, 112, 12, 8, 8]       224                       [112]                     112
|    |    |    |    |    └─ReLU: 6-123             [-1, 112, 12, 8, 8]       [-1, 112, 12, 8, 8]       --                        --                        --
|    |    |    └─Sequential: 4-37                  [-1, 512, 12, 8, 8]       [-1, 288, 12, 8, 8]       --                        --                        --
|    |    |    |    └─BasicConv3d: 5-37            [-1, 512, 12, 8, 8]       [-1, 144, 12, 8, 8]       --                        --                        --
|    |    |    |    |    └─Conv3d: 6-124           [-1, 512, 12, 8, 8]       [-1, 144, 12, 8, 8]       73,728                    [512, 144, 1, 1, 1]       56,623,104
|    |    |    |    |    └─BatchNorm3d: 6-125      [-1, 144, 12, 8, 8]       [-1, 144, 12, 8, 8]       288                       [144]                     144
|    |    |    |    |    └─ReLU: 6-126             [-1, 144, 12, 8, 8]       [-1, 144, 12, 8, 8]       --                        --                        --
|    |    |    |    └─SepConv3d: 5-38              [-1, 144, 12, 8, 8]       [-1, 288, 12, 8, 8]       --                        --                        --
|    |    |    |    |    └─Conv3d: 6-127           [-1, 144, 12, 8, 8]       [-1, 288, 12, 8, 8]       373,248                   [144, 288, 1, 3, 3]       286,654,464
|    |    |    |    |    └─BatchNorm3d: 6-128      [-1, 288, 12, 8, 8]       [-1, 288, 12, 8, 8]       576                       [288]                     288
|    |    |    |    |    └─ReLU: 6-129             [-1, 288, 12, 8, 8]       [-1, 288, 12, 8, 8]       --                        --                        --
|    |    |    |    |    └─Conv3d: 6-130           [-1, 288, 12, 8, 8]       [-1, 288, 12, 8, 8]       248,832                   [288, 288, 3, 1, 1]       191,102,976
|    |    |    |    |    └─BatchNorm3d: 6-131      [-1, 288, 12, 8, 8]       [-1, 288, 12, 8, 8]       576                       [288]                     288
|    |    |    |    |    └─ReLU: 6-132             [-1, 288, 12, 8, 8]       [-1, 288, 12, 8, 8]       --                        --                        --
|    |    |    └─Sequential: 4-38                  [-1, 512, 12, 8, 8]       [-1, 64, 12, 8, 8]        --                        --                        --
|    |    |    |    └─BasicConv3d: 5-39            [-1, 512, 12, 8, 8]       [-1, 32, 12, 8, 8]        --                        --                        --
|    |    |    |    |    └─Conv3d: 6-133           [-1, 512, 12, 8, 8]       [-1, 32, 12, 8, 8]        16,384                    [512, 32, 1, 1, 1]        12,582,912
|    |    |    |    |    └─BatchNorm3d: 6-134      [-1, 32, 12, 8, 8]        [-1, 32, 12, 8, 8]        64                        [32]                      32
|    |    |    |    |    └─ReLU: 6-135             [-1, 32, 12, 8, 8]        [-1, 32, 12, 8, 8]        --                        --                        --
|    |    |    |    └─SepConv3d: 5-40              [-1, 32, 12, 8, 8]        [-1, 64, 12, 8, 8]        --                        --                        --
|    |    |    |    |    └─Conv3d: 6-136           [-1, 32, 12, 8, 8]        [-1, 64, 12, 8, 8]        18,432                    [32, 64, 1, 3, 3]         14,155,776
|    |    |    |    |    └─BatchNorm3d: 6-137      [-1, 64, 12, 8, 8]        [-1, 64, 12, 8, 8]        128                       [64]                      64
|    |    |    |    |    └─ReLU: 6-138             [-1, 64, 12, 8, 8]        [-1, 64, 12, 8, 8]        --                        --                        --
|    |    |    |    |    └─Conv3d: 6-139           [-1, 64, 12, 8, 8]        [-1, 64, 12, 8, 8]        12,288                    [64, 64, 3, 1, 1]         9,437,184
|    |    |    |    |    └─BatchNorm3d: 6-140      [-1, 64, 12, 8, 8]        [-1, 64, 12, 8, 8]        128                       [64]                      64
|    |    |    |    |    └─ReLU: 6-141             [-1, 64, 12, 8, 8]        [-1, 64, 12, 8, 8]        --                        --                        --
|    |    |    └─Sequential: 4-39                  [-1, 512, 12, 8, 8]       [-1, 64, 12, 8, 8]        --                        --                        --
|    |    |    |    └─MaxPool3d: 5-41              [-1, 512, 12, 8, 8]       [-1, 512, 12, 8, 8]       --                        --                        --
|    |    |    |    └─BasicConv3d: 5-42            [-1, 512, 12, 8, 8]       [-1, 64, 12, 8, 8]        --                        --                        --
|    |    |    |    |    └─Conv3d: 6-142           [-1, 512, 12, 8, 8]       [-1, 64, 12, 8, 8]        32,768                    [512, 64, 1, 1, 1]        25,165,824
|    |    |    |    |    └─BatchNorm3d: 6-143      [-1, 64, 12, 8, 8]        [-1, 64, 12, 8, 8]        128                       [64]                      64
|    |    |    |    |    └─ReLU: 6-144             [-1, 64, 12, 8, 8]        [-1, 64, 12, 8, 8]        --                        --                        --
|    |    └─Mixed_4f: 3-13                         [-1, 528, 12, 8, 8]       [-1, 832, 12, 8, 8]       --                        --                        --
|    |    |    └─Sequential: 4-40                  [-1, 528, 12, 8, 8]       [-1, 256, 12, 8, 8]       --                        --                        --
|    |    |    |    └─BasicConv3d: 5-43            [-1, 528, 12, 8, 8]       [-1, 256, 12, 8, 8]       --                        --                        --
|    |    |    |    |    └─Conv3d: 6-145           [-1, 528, 12, 8, 8]       [-1, 256, 12, 8, 8]       135,168                   [528, 256, 1, 1, 1]       103,809,024
|    |    |    |    |    └─BatchNorm3d: 6-146      [-1, 256, 12, 8, 8]       [-1, 256, 12, 8, 8]       512                       [256]                     256
|    |    |    |    |    └─ReLU: 6-147             [-1, 256, 12, 8, 8]       [-1, 256, 12, 8, 8]       --                        --                        --
|    |    |    └─Sequential: 4-41                  [-1, 528, 12, 8, 8]       [-1, 320, 12, 8, 8]       --                        --                        --
|    |    |    |    └─BasicConv3d: 5-44            [-1, 528, 12, 8, 8]       [-1, 160, 12, 8, 8]       --                        --                        --
|    |    |    |    |    └─Conv3d: 6-148           [-1, 528, 12, 8, 8]       [-1, 160, 12, 8, 8]       84,480                    [528, 160, 1, 1, 1]       64,880,640
|    |    |    |    |    └─BatchNorm3d: 6-149      [-1, 160, 12, 8, 8]       [-1, 160, 12, 8, 8]       320                       [160]                     160
|    |    |    |    |    └─ReLU: 6-150             [-1, 160, 12, 8, 8]       [-1, 160, 12, 8, 8]       --                        --                        --
|    |    |    |    └─SepConv3d: 5-45              [-1, 160, 12, 8, 8]       [-1, 320, 12, 8, 8]       --                        --                        --
|    |    |    |    |    └─Conv3d: 6-151           [-1, 160, 12, 8, 8]       [-1, 320, 12, 8, 8]       460,800                   [160, 320, 1, 3, 3]       353,894,400
|    |    |    |    |    └─BatchNorm3d: 6-152      [-1, 320, 12, 8, 8]       [-1, 320, 12, 8, 8]       640                       [320]                     320
|    |    |    |    |    └─ReLU: 6-153             [-1, 320, 12, 8, 8]       [-1, 320, 12, 8, 8]       --                        --                        --
|    |    |    |    |    └─Conv3d: 6-154           [-1, 320, 12, 8, 8]       [-1, 320, 12, 8, 8]       307,200                   [320, 320, 3, 1, 1]       235,929,600
|    |    |    |    |    └─BatchNorm3d: 6-155      [-1, 320, 12, 8, 8]       [-1, 320, 12, 8, 8]       640                       [320]                     320
|    |    |    |    |    └─ReLU: 6-156             [-1, 320, 12, 8, 8]       [-1, 320, 12, 8, 8]       --                        --                        --
|    |    |    └─Sequential: 4-42                  [-1, 528, 12, 8, 8]       [-1, 128, 12, 8, 8]       --                        --                        --
|    |    |    |    └─BasicConv3d: 5-46            [-1, 528, 12, 8, 8]       [-1, 32, 12, 8, 8]        --                        --                        --
|    |    |    |    |    └─Conv3d: 6-157           [-1, 528, 12, 8, 8]       [-1, 32, 12, 8, 8]        16,896                    [528, 32, 1, 1, 1]        12,976,128
|    |    |    |    |    └─BatchNorm3d: 6-158      [-1, 32, 12, 8, 8]        [-1, 32, 12, 8, 8]        64                        [32]                      32
|    |    |    |    |    └─ReLU: 6-159             [-1, 32, 12, 8, 8]        [-1, 32, 12, 8, 8]        --                        --                        --
|    |    |    |    └─SepConv3d: 5-47              [-1, 32, 12, 8, 8]        [-1, 128, 12, 8, 8]       --                        --                        --
|    |    |    |    |    └─Conv3d: 6-160           [-1, 32, 12, 8, 8]        [-1, 128, 12, 8, 8]       36,864                    [32, 128, 1, 3, 3]        28,311,552
|    |    |    |    |    └─BatchNorm3d: 6-161      [-1, 128, 12, 8, 8]       [-1, 128, 12, 8, 8]       256                       [128]                     128
|    |    |    |    |    └─ReLU: 6-162             [-1, 128, 12, 8, 8]       [-1, 128, 12, 8, 8]       --                        --                        --
|    |    |    |    |    └─Conv3d: 6-163           [-1, 128, 12, 8, 8]       [-1, 128, 12, 8, 8]       49,152                    [128, 128, 3, 1, 1]       37,748,736
|    |    |    |    |    └─BatchNorm3d: 6-164      [-1, 128, 12, 8, 8]       [-1, 128, 12, 8, 8]       256                       [128]                     128
|    |    |    |    |    └─ReLU: 6-165             [-1, 128, 12, 8, 8]       [-1, 128, 12, 8, 8]       --                        --                        --
|    |    |    └─Sequential: 4-43                  [-1, 528, 12, 8, 8]       [-1, 128, 12, 8, 8]       --                        --                        --
|    |    |    |    └─MaxPool3d: 5-48              [-1, 528, 12, 8, 8]       [-1, 528, 12, 8, 8]       --                        --                        --
|    |    |    |    └─BasicConv3d: 5-49            [-1, 528, 12, 8, 8]       [-1, 128, 12, 8, 8]       --                        --                        --
|    |    |    |    |    └─Conv3d: 6-166           [-1, 528, 12, 8, 8]       [-1, 128, 12, 8, 8]       67,584                    [528, 128, 1, 1, 1]       51,904,512
|    |    |    |    |    └─BatchNorm3d: 6-167      [-1, 128, 12, 8, 8]       [-1, 128, 12, 8, 8]       256                       [128]                     128
|    |    |    |    |    └─ReLU: 6-168             [-1, 128, 12, 8, 8]       [-1, 128, 12, 8, 8]       --                        --                        --
|    |    └─MaxPool3d: 3-14                        [-1, 832, 12, 8, 8]       [-1, 832, 6, 4, 4]        --                        --                        --
|    └─Sequential: 2-5                             [-1, 832, 6, 4, 4]        [-1, 1024, 6, 4, 4]       --                        --                        --
|    |    └─Mixed_5b: 3-15                         [-1, 832, 6, 4, 4]        [-1, 832, 6, 4, 4]        --                        --                        --
|    |    |    └─Sequential: 4-44                  [-1, 832, 6, 4, 4]        [-1, 256, 6, 4, 4]        --                        --                        --
|    |    |    |    └─BasicConv3d: 5-50            [-1, 832, 6, 4, 4]        [-1, 256, 6, 4, 4]        --                        --                        --
|    |    |    |    |    └─Conv3d: 6-169           [-1, 832, 6, 4, 4]        [-1, 256, 6, 4, 4]        212,992                   [832, 256, 1, 1, 1]       20,447,232
|    |    |    |    |    └─BatchNorm3d: 6-170      [-1, 256, 6, 4, 4]        [-1, 256, 6, 4, 4]        512                       [256]                     256
|    |    |    |    |    └─ReLU: 6-171             [-1, 256, 6, 4, 4]        [-1, 256, 6, 4, 4]        --                        --                        --
|    |    |    └─Sequential: 4-45                  [-1, 832, 6, 4, 4]        [-1, 320, 6, 4, 4]        --                        --                        --
|    |    |    |    └─BasicConv3d: 5-51            [-1, 832, 6, 4, 4]        [-1, 160, 6, 4, 4]        --                        --                        --
|    |    |    |    |    └─Conv3d: 6-172           [-1, 832, 6, 4, 4]        [-1, 160, 6, 4, 4]        133,120                   [832, 160, 1, 1, 1]       12,779,520
|    |    |    |    |    └─BatchNorm3d: 6-173      [-1, 160, 6, 4, 4]        [-1, 160, 6, 4, 4]        320                       [160]                     160
|    |    |    |    |    └─ReLU: 6-174             [-1, 160, 6, 4, 4]        [-1, 160, 6, 4, 4]        --                        --                        --
|    |    |    |    └─SepConv3d: 5-52              [-1, 160, 6, 4, 4]        [-1, 320, 6, 4, 4]        --                        --                        --
|    |    |    |    |    └─Conv3d: 6-175           [-1, 160, 6, 4, 4]        [-1, 320, 6, 4, 4]        460,800                   [160, 320, 1, 3, 3]       44,236,800
|    |    |    |    |    └─BatchNorm3d: 6-176      [-1, 320, 6, 4, 4]        [-1, 320, 6, 4, 4]        640                       [320]                     320
|    |    |    |    |    └─ReLU: 6-177             [-1, 320, 6, 4, 4]        [-1, 320, 6, 4, 4]        --                        --                        --
|    |    |    |    |    └─Conv3d: 6-178           [-1, 320, 6, 4, 4]        [-1, 320, 6, 4, 4]        307,200                   [320, 320, 3, 1, 1]       29,491,200
|    |    |    |    |    └─BatchNorm3d: 6-179      [-1, 320, 6, 4, 4]        [-1, 320, 6, 4, 4]        640                       [320]                     320
|    |    |    |    |    └─ReLU: 6-180             [-1, 320, 6, 4, 4]        [-1, 320, 6, 4, 4]        --                        --                        --
|    |    |    └─Sequential: 4-46                  [-1, 832, 6, 4, 4]        [-1, 128, 6, 4, 4]        --                        --                        --
|    |    |    |    └─BasicConv3d: 5-53            [-1, 832, 6, 4, 4]        [-1, 32, 6, 4, 4]         --                        --                        --
|    |    |    |    |    └─Conv3d: 6-181           [-1, 832, 6, 4, 4]        [-1, 32, 6, 4, 4]         26,624                    [832, 32, 1, 1, 1]        2,555,904
|    |    |    |    |    └─BatchNorm3d: 6-182      [-1, 32, 6, 4, 4]         [-1, 32, 6, 4, 4]         64                        [32]                      32
|    |    |    |    |    └─ReLU: 6-183             [-1, 32, 6, 4, 4]         [-1, 32, 6, 4, 4]         --                        --                        --
|    |    |    |    └─SepConv3d: 5-54              [-1, 32, 6, 4, 4]         [-1, 128, 6, 4, 4]        --                        --                        --
|    |    |    |    |    └─Conv3d: 6-184           [-1, 32, 6, 4, 4]         [-1, 128, 6, 4, 4]        36,864                    [32, 128, 1, 3, 3]        3,538,944
|    |    |    |    |    └─BatchNorm3d: 6-185      [-1, 128, 6, 4, 4]        [-1, 128, 6, 4, 4]        256                       [128]                     128
|    |    |    |    |    └─ReLU: 6-186             [-1, 128, 6, 4, 4]        [-1, 128, 6, 4, 4]        --                        --                        --
|    |    |    |    |    └─Conv3d: 6-187           [-1, 128, 6, 4, 4]        [-1, 128, 6, 4, 4]        49,152                    [128, 128, 3, 1, 1]       4,718,592
|    |    |    |    |    └─BatchNorm3d: 6-188      [-1, 128, 6, 4, 4]        [-1, 128, 6, 4, 4]        256                       [128]                     128
|    |    |    |    |    └─ReLU: 6-189             [-1, 128, 6, 4, 4]        [-1, 128, 6, 4, 4]        --                        --                        --
|    |    |    └─Sequential: 4-47                  [-1, 832, 6, 4, 4]        [-1, 128, 6, 4, 4]        --                        --                        --
|    |    |    |    └─MaxPool3d: 5-55              [-1, 832, 6, 4, 4]        [-1, 832, 6, 4, 4]        --                        --                        --
|    |    |    |    └─BasicConv3d: 5-56            [-1, 832, 6, 4, 4]        [-1, 128, 6, 4, 4]        --                        --                        --
|    |    |    |    |    └─Conv3d: 6-190           [-1, 832, 6, 4, 4]        [-1, 128, 6, 4, 4]        106,496                   [832, 128, 1, 1, 1]       10,223,616
|    |    |    |    |    └─BatchNorm3d: 6-191      [-1, 128, 6, 4, 4]        [-1, 128, 6, 4, 4]        256                       [128]                     128
|    |    |    |    |    └─ReLU: 6-192             [-1, 128, 6, 4, 4]        [-1, 128, 6, 4, 4]        --                        --                        --
|    |    └─Mixed_5c: 3-16                         [-1, 832, 6, 4, 4]        [-1, 1024, 6, 4, 4]       --                        --                        --
|    |    |    └─Sequential: 4-48                  [-1, 832, 6, 4, 4]        [-1, 384, 6, 4, 4]        --                        --                        --
|    |    |    |    └─BasicConv3d: 5-57            [-1, 832, 6, 4, 4]        [-1, 384, 6, 4, 4]        --                        --                        --
|    |    |    |    |    └─Conv3d: 6-193           [-1, 832, 6, 4, 4]        [-1, 384, 6, 4, 4]        319,488                   [832, 384, 1, 1, 1]       30,670,848
|    |    |    |    |    └─BatchNorm3d: 6-194      [-1, 384, 6, 4, 4]        [-1, 384, 6, 4, 4]        768                       [384]                     384
|    |    |    |    |    └─ReLU: 6-195             [-1, 384, 6, 4, 4]        [-1, 384, 6, 4, 4]        --                        --                        --
|    |    |    └─Sequential: 4-49                  [-1, 832, 6, 4, 4]        [-1, 384, 6, 4, 4]        --                        --                        --
|    |    |    |    └─BasicConv3d: 5-58            [-1, 832, 6, 4, 4]        [-1, 192, 6, 4, 4]        --                        --                        --
|    |    |    |    |    └─Conv3d: 6-196           [-1, 832, 6, 4, 4]        [-1, 192, 6, 4, 4]        159,744                   [832, 192, 1, 1, 1]       15,335,424
|    |    |    |    |    └─BatchNorm3d: 6-197      [-1, 192, 6, 4, 4]        [-1, 192, 6, 4, 4]        384                       [192]                     192
|    |    |    |    |    └─ReLU: 6-198             [-1, 192, 6, 4, 4]        [-1, 192, 6, 4, 4]        --                        --                        --
|    |    |    |    └─SepConv3d: 5-59              [-1, 192, 6, 4, 4]        [-1, 384, 6, 4, 4]        --                        --                        --
|    |    |    |    |    └─Conv3d: 6-199           [-1, 192, 6, 4, 4]        [-1, 384, 6, 4, 4]        663,552                   [192, 384, 1, 3, 3]       63,700,992
|    |    |    |    |    └─BatchNorm3d: 6-200      [-1, 384, 6, 4, 4]        [-1, 384, 6, 4, 4]        768                       [384]                     384
|    |    |    |    |    └─ReLU: 6-201             [-1, 384, 6, 4, 4]        [-1, 384, 6, 4, 4]        --                        --                        --
|    |    |    |    |    └─Conv3d: 6-202           [-1, 384, 6, 4, 4]        [-1, 384, 6, 4, 4]        442,368                   [384, 384, 3, 1, 1]       42,467,328
|    |    |    |    |    └─BatchNorm3d: 6-203      [-1, 384, 6, 4, 4]        [-1, 384, 6, 4, 4]        768                       [384]                     384
|    |    |    |    |    └─ReLU: 6-204             [-1, 384, 6, 4, 4]        [-1, 384, 6, 4, 4]        --                        --                        --
|    |    |    └─Sequential: 4-50                  [-1, 832, 6, 4, 4]        [-1, 128, 6, 4, 4]        --                        --                        --
|    |    |    |    └─BasicConv3d: 5-60            [-1, 832, 6, 4, 4]        [-1, 48, 6, 4, 4]         --                        --                        --
|    |    |    |    |    └─Conv3d: 6-205           [-1, 832, 6, 4, 4]        [-1, 48, 6, 4, 4]         39,936                    [832, 48, 1, 1, 1]        3,833,856
|    |    |    |    |    └─BatchNorm3d: 6-206      [-1, 48, 6, 4, 4]         [-1, 48, 6, 4, 4]         96                        [48]                      48
|    |    |    |    |    └─ReLU: 6-207             [-1, 48, 6, 4, 4]         [-1, 48, 6, 4, 4]         --                        --                        --
|    |    |    |    └─SepConv3d: 5-61              [-1, 48, 6, 4, 4]         [-1, 128, 6, 4, 4]        --                        --                        --
|    |    |    |    |    └─Conv3d: 6-208           [-1, 48, 6, 4, 4]         [-1, 128, 6, 4, 4]        55,296                    [48, 128, 1, 3, 3]        5,308,416
|    |    |    |    |    └─BatchNorm3d: 6-209      [-1, 128, 6, 4, 4]        [-1, 128, 6, 4, 4]        256                       [128]                     128
|    |    |    |    |    └─ReLU: 6-210             [-1, 128, 6, 4, 4]        [-1, 128, 6, 4, 4]        --                        --                        --
|    |    |    |    |    └─Conv3d: 6-211           [-1, 128, 6, 4, 4]        [-1, 128, 6, 4, 4]        49,152                    [128, 128, 3, 1, 1]       4,718,592
|    |    |    |    |    └─BatchNorm3d: 6-212      [-1, 128, 6, 4, 4]        [-1, 128, 6, 4, 4]        256                       [128]                     128
|    |    |    |    |    └─ReLU: 6-213             [-1, 128, 6, 4, 4]        [-1, 128, 6, 4, 4]        --                        --                        --
|    |    |    └─Sequential: 4-51                  [-1, 832, 6, 4, 4]        [-1, 128, 6, 4, 4]        --                        --                        --
|    |    |    |    └─MaxPool3d: 5-62              [-1, 832, 6, 4, 4]        [-1, 832, 6, 4, 4]        --                        --                        --
|    |    |    |    └─BasicConv3d: 5-63            [-1, 832, 6, 4, 4]        [-1, 128, 6, 4, 4]        --                        --                        --
|    |    |    |    |    └─Conv3d: 6-214           [-1, 832, 6, 4, 4]        [-1, 128, 6, 4, 4]        106,496                   [832, 128, 1, 1, 1]       10,223,616
|    |    |    |    |    └─BatchNorm3d: 6-215      [-1, 128, 6, 4, 4]        [-1, 128, 6, 4, 4]        256                       [128]                     128
|    |    |    |    |    └─ReLU: 6-216             [-1, 128, 6, 4, 4]        [-1, 128, 6, 4, 4]        --                        --                        --
├─Decoder_3D: 1-2                                  [-1, 192, 24, 16, 16]     [-1, 2, 48, 128, 128]     --                        --                        --
|    └─Sequential: 2-6                             [-1, 192, 24, 16, 16]     [-1, 3, 48, 128, 128]     --                        --                        --
|    |    └─Deconv: 3-17                           [-1, 192, 24, 16, 16]     [-1, 64, 24, 32, 32]      --                        --                        --
|    |    |    └─BasicConv3d: 4-52                 [-1, 192, 24, 16, 16]     [-1, 64, 24, 16, 16]      --                        --                        --
|    |    |    |    └─ConvBNReLU: 5-64             [-1, 192, 24, 16, 16]     [-1, 64, 24, 16, 16]      --                        --                        --
|    |    |    |    |    └─Conv3d: 6-217           [-1, 192, 24, 16, 16]     [-1, 64, 24, 16, 16]      331,776                   [192, 64, 3, 3, 3]        2,038,431,744
|    |    |    |    |    └─BatchNorm3d: 6-218      [-1, 64, 24, 16, 16]      [-1, 64, 24, 16, 16]      128                       [64]                      64
|    |    |    |    |    └─ReLU6: 6-219            [-1, 64, 24, 16, 16]      [-1, 64, 24, 16, 16]      --                        --                        --
|    |    |    └─SepConv3d: 4-53                   [-1, 64, 24, 16, 16]      [-1, 64, 24, 16, 16]      --                        --                        --
|    |    |    |    └─ConvBNReLU: 5-65             [-1, 64, 24, 16, 16]      [-1, 64, 24, 16, 16]      --                        --                        --
|    |    |    |    |    └─Conv3d: 6-220           [-1, 64, 24, 16, 16]      [-1, 64, 24, 16, 16]      1,728                     [1, 64, 3, 3, 3]          10,616,832
|    |    |    |    |    └─BatchNorm3d: 6-221      [-1, 64, 24, 16, 16]      [-1, 64, 24, 16, 16]      128                       [64]                      64
|    |    |    |    |    └─ReLU6: 6-222            [-1, 64, 24, 16, 16]      [-1, 64, 24, 16, 16]      --                        --                        --
|    |    |    |    └─ConvBNReLU: 5-66             [-1, 64, 24, 16, 16]      [-1, 64, 24, 16, 16]      --                        --                        --
|    |    |    |    |    └─Conv3d: 6-223           [-1, 64, 24, 16, 16]      [-1, 64, 24, 16, 16]      4,096                     [64, 64, 1, 1, 1]         25,165,824
|    |    |    |    |    └─BatchNorm3d: 6-224      [-1, 64, 24, 16, 16]      [-1, 64, 24, 16, 16]      128                       [64]                      64
|    |    |    |    |    └─ReLU6: 6-225            [-1, 64, 24, 16, 16]      [-1, 64, 24, 16, 16]      --                        --                        --
|    |    |    └─Upsample: 4-54                    [-1, 64, 24, 16, 16]      [-1, 64, 24, 32, 32]      --                        --                        --
|    |    └─Deconv: 3-18                           [-1, 64, 24, 32, 32]      [-1, 8, 24, 64, 64]       --                        --                        --
|    |    |    └─BasicConv3d: 4-55                 [-1, 64, 24, 32, 32]      [-1, 8, 24, 32, 32]       --                        --                        --
|    |    |    |    └─ConvBNReLU: 5-67             [-1, 64, 24, 32, 32]      [-1, 8, 24, 32, 32]       --                        --                        --
|    |    |    |    |    └─Conv3d: 6-226           [-1, 64, 24, 32, 32]      [-1, 8, 24, 32, 32]       13,824                    [64, 8, 3, 3, 3]          339,738,624
|    |    |    |    |    └─BatchNorm3d: 6-227      [-1, 8, 24, 32, 32]       [-1, 8, 24, 32, 32]       16                        [8]                       8
|    |    |    |    |    └─ReLU6: 6-228            [-1, 8, 24, 32, 32]       [-1, 8, 24, 32, 32]       --                        --                        --
|    |    |    └─SepConv3d: 4-56                   [-1, 8, 24, 32, 32]       [-1, 8, 24, 32, 32]       --                        --                        --
|    |    |    |    └─ConvBNReLU: 5-68             [-1, 8, 24, 32, 32]       [-1, 8, 24, 32, 32]       --                        --                        --
|    |    |    |    |    └─Conv3d: 6-229           [-1, 8, 24, 32, 32]       [-1, 8, 24, 32, 32]       216                       [1, 8, 3, 3, 3]           5,308,416
|    |    |    |    |    └─BatchNorm3d: 6-230      [-1, 8, 24, 32, 32]       [-1, 8, 24, 32, 32]       16                        [8]                       8
|    |    |    |    |    └─ReLU6: 6-231            [-1, 8, 24, 32, 32]       [-1, 8, 24, 32, 32]       --                        --                        --
|    |    |    |    └─ConvBNReLU: 5-69             [-1, 8, 24, 32, 32]       [-1, 8, 24, 32, 32]       --                        --                        --
|    |    |    |    |    └─Conv3d: 6-232           [-1, 8, 24, 32, 32]       [-1, 8, 24, 32, 32]       64                        [8, 8, 1, 1, 1]           1,572,864
|    |    |    |    |    └─BatchNorm3d: 6-233      [-1, 8, 24, 32, 32]       [-1, 8, 24, 32, 32]       16                        [8]                       8
|    |    |    |    |    └─ReLU6: 6-234            [-1, 8, 24, 32, 32]       [-1, 8, 24, 32, 32]       --                        --                        --
|    |    |    └─Upsample: 4-57                    [-1, 8, 24, 32, 32]       [-1, 8, 24, 64, 64]       --                        --                        --
|    |    └─Deconv: 3-19                           [-1, 8, 24, 64, 64]       [-1, 3, 48, 128, 128]     --                        --                        --
|    |    |    └─BasicConv3d: 4-58                 [-1, 8, 24, 64, 64]       [-1, 3, 24, 64, 64]       --                        --                        --
|    |    |    |    └─ConvBNReLU: 5-70             [-1, 8, 24, 64, 64]       [-1, 3, 24, 64, 64]       --                        --                        --
|    |    |    |    |    └─Conv3d: 6-235           [-1, 8, 24, 64, 64]       [-1, 3, 24, 64, 64]       648                       [8, 3, 3, 3, 3]           63,700,992
|    |    |    |    |    └─BatchNorm3d: 6-236      [-1, 3, 24, 64, 64]       [-1, 3, 24, 64, 64]       6                         [3]                       3
|    |    |    |    |    └─ReLU6: 6-237            [-1, 3, 24, 64, 64]       [-1, 3, 24, 64, 64]       --                        --                        --
|    |    |    └─SepConv3d: 4-59                   [-1, 3, 24, 64, 64]       [-1, 3, 24, 64, 64]       --                        --                        --
|    |    |    |    └─ConvBNReLU: 5-71             [-1, 3, 24, 64, 64]       [-1, 3, 24, 64, 64]       --                        --                        --
|    |    |    |    |    └─Conv3d: 6-238           [-1, 3, 24, 64, 64]       [-1, 3, 24, 64, 64]       81                        [1, 3, 3, 3, 3]           7,962,624
|    |    |    |    |    └─BatchNorm3d: 6-239      [-1, 3, 24, 64, 64]       [-1, 3, 24, 64, 64]       6                         [3]                       3
|    |    |    |    |    └─ReLU6: 6-240            [-1, 3, 24, 64, 64]       [-1, 3, 24, 64, 64]       --                        --                        --
|    |    |    |    └─ConvBNReLU: 5-72             [-1, 3, 24, 64, 64]       [-1, 3, 24, 64, 64]       --                        --                        --
|    |    |    |    |    └─Conv3d: 6-241           [-1, 3, 24, 64, 64]       [-1, 3, 24, 64, 64]       9                         [3, 3, 1, 1, 1]           884,736
|    |    |    |    |    └─BatchNorm3d: 6-242      [-1, 3, 24, 64, 64]       [-1, 3, 24, 64, 64]       6                         [3]                       3
|    |    |    |    |    └─ReLU6: 6-243            [-1, 3, 24, 64, 64]       [-1, 3, 24, 64, 64]       --                        --                        --
|    |    |    └─Upsample: 4-60                    [-1, 3, 24, 64, 64]       [-1, 3, 48, 128, 128]     --                        --                        --
|    └─Conv3d: 2-7                                 [-1, 3, 48, 128, 128]     [-1, 2, 48, 128, 128]     8                         [3, 2, 1, 1, 1]           4,718,592
├─Decoder_3D: 1-3                                  [-1, 480, 12, 8, 8]       [-1, 2, 48, 128, 128]     --                        --                        --
|    └─Sequential: 2-8                             [-1, 480, 12, 8, 8]       [-1, 3, 48, 128, 128]     --                        --                        --
|    |    └─Deconv: 3-20                           [-1, 480, 12, 8, 8]       [-1, 128, 12, 16, 16]     --                        --                        --
|    |    |    └─BasicConv3d: 4-61                 [-1, 480, 12, 8, 8]       [-1, 128, 12, 8, 8]       --                        --                        --
|    |    |    |    └─ConvBNReLU: 5-73             [-1, 480, 12, 8, 8]       [-1, 128, 12, 8, 8]       --                        --                        --
|    |    |    |    |    └─Conv3d: 6-244           [-1, 480, 12, 8, 8]       [-1, 128, 12, 8, 8]       1,658,880                 [480, 128, 3, 3, 3]       1,274,019,840
|    |    |    |    |    └─BatchNorm3d: 6-245      [-1, 128, 12, 8, 8]       [-1, 128, 12, 8, 8]       256                       [128]                     128
|    |    |    |    |    └─ReLU6: 6-246            [-1, 128, 12, 8, 8]       [-1, 128, 12, 8, 8]       --                        --                        --
|    |    |    └─SepConv3d: 4-62                   [-1, 128, 12, 8, 8]       [-1, 128, 12, 8, 8]       --                        --                        --
|    |    |    |    └─ConvBNReLU: 5-74             [-1, 128, 12, 8, 8]       [-1, 128, 12, 8, 8]       --                        --                        --
|    |    |    |    |    └─Conv3d: 6-247           [-1, 128, 12, 8, 8]       [-1, 128, 12, 8, 8]       3,456                     [1, 128, 3, 3, 3]         2,654,208
|    |    |    |    |    └─BatchNorm3d: 6-248      [-1, 128, 12, 8, 8]       [-1, 128, 12, 8, 8]       256                       [128]                     128
|    |    |    |    |    └─ReLU6: 6-249            [-1, 128, 12, 8, 8]       [-1, 128, 12, 8, 8]       --                        --                        --
|    |    |    |    └─ConvBNReLU: 5-75             [-1, 128, 12, 8, 8]       [-1, 128, 12, 8, 8]       --                        --                        --
|    |    |    |    |    └─Conv3d: 6-250           [-1, 128, 12, 8, 8]       [-1, 128, 12, 8, 8]       16,384                    [128, 128, 1, 1, 1]       12,582,912
|    |    |    |    |    └─BatchNorm3d: 6-251      [-1, 128, 12, 8, 8]       [-1, 128, 12, 8, 8]       256                       [128]                     128
|    |    |    |    |    └─ReLU6: 6-252            [-1, 128, 12, 8, 8]       [-1, 128, 12, 8, 8]       --                        --                        --
|    |    |    └─SepConv3d: 4-63                   [-1, 128, 12, 8, 8]       [-1, 128, 12, 8, 8]       --                        --                        --
|    |    |    |    └─ConvBNReLU: 5-76             [-1, 128, 12, 8, 8]       [-1, 128, 12, 8, 8]       --                        --                        --
|    |    |    |    |    └─Conv3d: 6-253           [-1, 128, 12, 8, 8]       [-1, 128, 12, 8, 8]       3,456                     [1, 128, 3, 3, 3]         2,654,208
|    |    |    |    |    └─BatchNorm3d: 6-254      [-1, 128, 12, 8, 8]       [-1, 128, 12, 8, 8]       256                       [128]                     128
|    |    |    |    |    └─ReLU6: 6-255            [-1, 128, 12, 8, 8]       [-1, 128, 12, 8, 8]       --                        --                        --
|    |    |    |    └─ConvBNReLU: 5-77             [-1, 128, 12, 8, 8]       [-1, 128, 12, 8, 8]       --                        --                        --
|    |    |    |    |    └─Conv3d: 6-256           [-1, 128, 12, 8, 8]       [-1, 128, 12, 8, 8]       16,384                    [128, 128, 1, 1, 1]       12,582,912
|    |    |    |    |    └─BatchNorm3d: 6-257      [-1, 128, 12, 8, 8]       [-1, 128, 12, 8, 8]       256                       [128]                     128
|    |    |    |    |    └─ReLU6: 6-258            [-1, 128, 12, 8, 8]       [-1, 128, 12, 8, 8]       --                        --                        --
|    |    |    └─Upsample: 4-64                    [-1, 128, 12, 8, 8]       [-1, 128, 12, 16, 16]     --                        --                        --
|    |    └─Deconv: 3-21                           [-1, 128, 12, 16, 16]     [-1, 64, 12, 32, 32]      --                        --                        --
|    |    |    └─BasicConv3d: 4-65                 [-1, 128, 12, 16, 16]     [-1, 64, 12, 16, 16]      --                        --                        --
|    |    |    |    └─ConvBNReLU: 5-78             [-1, 128, 12, 16, 16]     [-1, 64, 12, 16, 16]      --                        --                        --
|    |    |    |    |    └─Conv3d: 6-259           [-1, 128, 12, 16, 16]     [-1, 64, 12, 16, 16]      221,184                   [128, 64, 3, 3, 3]        679,477,248
|    |    |    |    |    └─BatchNorm3d: 6-260      [-1, 64, 12, 16, 16]      [-1, 64, 12, 16, 16]      128                       [64]                      64
|    |    |    |    |    └─ReLU6: 6-261            [-1, 64, 12, 16, 16]      [-1, 64, 12, 16, 16]      --                        --                        --
|    |    |    └─SepConv3d: 4-66                   [-1, 64, 12, 16, 16]      [-1, 64, 12, 16, 16]      --                        --                        --
|    |    |    |    └─ConvBNReLU: 5-79             [-1, 64, 12, 16, 16]      [-1, 64, 12, 16, 16]      --                        --                        --
|    |    |    |    |    └─Conv3d: 6-262           [-1, 64, 12, 16, 16]      [-1, 64, 12, 16, 16]      1,728                     [1, 64, 3, 3, 3]          5,308,416
|    |    |    |    |    └─BatchNorm3d: 6-263      [-1, 64, 12, 16, 16]      [-1, 64, 12, 16, 16]      128                       [64]                      64
|    |    |    |    |    └─ReLU6: 6-264            [-1, 64, 12, 16, 16]      [-1, 64, 12, 16, 16]      --                        --                        --
|    |    |    |    └─ConvBNReLU: 5-80             [-1, 64, 12, 16, 16]      [-1, 64, 12, 16, 16]      --                        --                        --
|    |    |    |    |    └─Conv3d: 6-265           [-1, 64, 12, 16, 16]      [-1, 64, 12, 16, 16]      4,096                     [64, 64, 1, 1, 1]         12,582,912
|    |    |    |    |    └─BatchNorm3d: 6-266      [-1, 64, 12, 16, 16]      [-1, 64, 12, 16, 16]      128                       [64]                      64
|    |    |    |    |    └─ReLU6: 6-267            [-1, 64, 12, 16, 16]      [-1, 64, 12, 16, 16]      --                        --                        --
|    |    |    └─Upsample: 4-67                    [-1, 64, 12, 16, 16]      [-1, 64, 12, 32, 32]      --                        --                        --
|    |    └─Deconv: 3-22                           [-1, 64, 12, 32, 32]      [-1, 8, 24, 64, 64]       --                        --                        --
|    |    |    └─BasicConv3d: 4-68                 [-1, 64, 12, 32, 32]      [-1, 8, 12, 32, 32]       --                        --                        --
|    |    |    |    └─ConvBNReLU: 5-81             [-1, 64, 12, 32, 32]      [-1, 8, 12, 32, 32]       --                        --                        --
|    |    |    |    |    └─Conv3d: 6-268           [-1, 64, 12, 32, 32]      [-1, 8, 12, 32, 32]       13,824                    [64, 8, 3, 3, 3]          169,869,312
|    |    |    |    |    └─BatchNorm3d: 6-269      [-1, 8, 12, 32, 32]       [-1, 8, 12, 32, 32]       16                        [8]                       8
|    |    |    |    |    └─ReLU6: 6-270            [-1, 8, 12, 32, 32]       [-1, 8, 12, 32, 32]       --                        --                        --
|    |    |    └─SepConv3d: 4-69                   [-1, 8, 12, 32, 32]       [-1, 8, 12, 32, 32]       --                        --                        --
|    |    |    |    └─ConvBNReLU: 5-82             [-1, 8, 12, 32, 32]       [-1, 8, 12, 32, 32]       --                        --                        --
|    |    |    |    |    └─Conv3d: 6-271           [-1, 8, 12, 32, 32]       [-1, 8, 12, 32, 32]       216                       [1, 8, 3, 3, 3]           2,654,208
|    |    |    |    |    └─BatchNorm3d: 6-272      [-1, 8, 12, 32, 32]       [-1, 8, 12, 32, 32]       16                        [8]                       8
|    |    |    |    |    └─ReLU6: 6-273            [-1, 8, 12, 32, 32]       [-1, 8, 12, 32, 32]       --                        --                        --
|    |    |    |    └─ConvBNReLU: 5-83             [-1, 8, 12, 32, 32]       [-1, 8, 12, 32, 32]       --                        --                        --
|    |    |    |    |    └─Conv3d: 6-274           [-1, 8, 12, 32, 32]       [-1, 8, 12, 32, 32]       64                        [8, 8, 1, 1, 1]           786,432
|    |    |    |    |    └─BatchNorm3d: 6-275      [-1, 8, 12, 32, 32]       [-1, 8, 12, 32, 32]       16                        [8]                       8
|    |    |    |    |    └─ReLU6: 6-276            [-1, 8, 12, 32, 32]       [-1, 8, 12, 32, 32]       --                        --                        --
|    |    |    └─Upsample: 4-70                    [-1, 8, 12, 32, 32]       [-1, 8, 24, 64, 64]       --                        --                        --
|    |    └─Deconv: 3-23                           [-1, 8, 24, 64, 64]       [-1, 3, 48, 128, 128]     --                        --                        --
|    |    |    └─BasicConv3d: 4-71                 [-1, 8, 24, 64, 64]       [-1, 3, 24, 64, 64]       --                        --                        --
|    |    |    |    └─ConvBNReLU: 5-84             [-1, 8, 24, 64, 64]       [-1, 3, 24, 64, 64]       --                        --                        --
|    |    |    |    |    └─Conv3d: 6-277           [-1, 8, 24, 64, 64]       [-1, 3, 24, 64, 64]       648                       [8, 3, 3, 3, 3]           63,700,992
|    |    |    |    |    └─BatchNorm3d: 6-278      [-1, 3, 24, 64, 64]       [-1, 3, 24, 64, 64]       6                         [3]                       3
|    |    |    |    |    └─ReLU6: 6-279            [-1, 3, 24, 64, 64]       [-1, 3, 24, 64, 64]       --                        --                        --
|    |    |    └─SepConv3d: 4-72                   [-1, 3, 24, 64, 64]       [-1, 3, 24, 64, 64]       --                        --                        --
|    |    |    |    └─ConvBNReLU: 5-85             [-1, 3, 24, 64, 64]       [-1, 3, 24, 64, 64]       --                        --                        --
|    |    |    |    |    └─Conv3d: 6-280           [-1, 3, 24, 64, 64]       [-1, 3, 24, 64, 64]       81                        [1, 3, 3, 3, 3]           7,962,624
|    |    |    |    |    └─BatchNorm3d: 6-281      [-1, 3, 24, 64, 64]       [-1, 3, 24, 64, 64]       6                         [3]                       3
|    |    |    |    |    └─ReLU6: 6-282            [-1, 3, 24, 64, 64]       [-1, 3, 24, 64, 64]       --                        --                        --
|    |    |    |    └─ConvBNReLU: 5-86             [-1, 3, 24, 64, 64]       [-1, 3, 24, 64, 64]       --                        --                        --
|    |    |    |    |    └─Conv3d: 6-283           [-1, 3, 24, 64, 64]       [-1, 3, 24, 64, 64]       9                         [3, 3, 1, 1, 1]           884,736
|    |    |    |    |    └─BatchNorm3d: 6-284      [-1, 3, 24, 64, 64]       [-1, 3, 24, 64, 64]       6                         [3]                       3
|    |    |    |    |    └─ReLU6: 6-285            [-1, 3, 24, 64, 64]       [-1, 3, 24, 64, 64]       --                        --                        --
|    |    |    └─Upsample: 4-73                    [-1, 3, 24, 64, 64]       [-1, 3, 48, 128, 128]     --                        --                        --
|    └─Conv3d: 2-9                                 [-1, 3, 48, 128, 128]     [-1, 2, 48, 128, 128]     8                         [3, 2, 1, 1, 1]           4,718,592
├─Decoder_3D: 1-4                                  [-1, 832, 6, 4, 4]        [-1, 2, 48, 128, 128]     --                        --                        --
|    └─Sequential: 2-10                            [-1, 832, 6, 4, 4]        [-1, 3, 48, 128, 128]     --                        --                        --
|    |    └─Deconv: 3-24                           [-1, 832, 6, 4, 4]        [-1, 256, 6, 8, 8]        --                        --                        --
|    |    |    └─BasicConv3d: 4-74                 [-1, 832, 6, 4, 4]        [-1, 256, 6, 4, 4]        --                        --                        --
|    |    |    |    └─ConvBNReLU: 5-87             [-1, 832, 6, 4, 4]        [-1, 256, 6, 4, 4]        --                        --                        --
|    |    |    |    |    └─Conv3d: 6-286           [-1, 832, 6, 4, 4]        [-1, 256, 6, 4, 4]        5,750,784                 [832, 256, 3, 3, 3]       552,075,264
|    |    |    |    |    └─BatchNorm3d: 6-287      [-1, 256, 6, 4, 4]        [-1, 256, 6, 4, 4]        512                       [256]                     256
|    |    |    |    |    └─ReLU6: 6-288            [-1, 256, 6, 4, 4]        [-1, 256, 6, 4, 4]        --                        --                        --
|    |    |    └─SepConv3d: 4-75                   [-1, 256, 6, 4, 4]        [-1, 256, 6, 4, 4]        --                        --                        --
|    |    |    |    └─ConvBNReLU: 5-88             [-1, 256, 6, 4, 4]        [-1, 256, 6, 4, 4]        --                        --                        --
|    |    |    |    |    └─Conv3d: 6-289           [-1, 256, 6, 4, 4]        [-1, 256, 6, 4, 4]        6,912                     [1, 256, 3, 3, 3]         663,552
|    |    |    |    |    └─BatchNorm3d: 6-290      [-1, 256, 6, 4, 4]        [-1, 256, 6, 4, 4]        512                       [256]                     256
|    |    |    |    |    └─ReLU6: 6-291            [-1, 256, 6, 4, 4]        [-1, 256, 6, 4, 4]        --                        --                        --
|    |    |    |    └─ConvBNReLU: 5-89             [-1, 256, 6, 4, 4]        [-1, 256, 6, 4, 4]        --                        --                        --
|    |    |    |    |    └─Conv3d: 6-292           [-1, 256, 6, 4, 4]        [-1, 256, 6, 4, 4]        65,536                    [256, 256, 1, 1, 1]       6,291,456
|    |    |    |    |    └─BatchNorm3d: 6-293      [-1, 256, 6, 4, 4]        [-1, 256, 6, 4, 4]        512                       [256]                     256
|    |    |    |    |    └─ReLU6: 6-294            [-1, 256, 6, 4, 4]        [-1, 256, 6, 4, 4]        --                        --                        --
|    |    |    └─SepConv3d: 4-76                   [-1, 256, 6, 4, 4]        [-1, 256, 6, 4, 4]        --                        --                        --
|    |    |    |    └─ConvBNReLU: 5-90             [-1, 256, 6, 4, 4]        [-1, 256, 6, 4, 4]        --                        --                        --
|    |    |    |    |    └─Conv3d: 6-295           [-1, 256, 6, 4, 4]        [-1, 256, 6, 4, 4]        6,912                     [1, 256, 3, 3, 3]         663,552
|    |    |    |    |    └─BatchNorm3d: 6-296      [-1, 256, 6, 4, 4]        [-1, 256, 6, 4, 4]        512                       [256]                     256
|    |    |    |    |    └─ReLU6: 6-297            [-1, 256, 6, 4, 4]        [-1, 256, 6, 4, 4]        --                        --                        --
|    |    |    |    └─ConvBNReLU: 5-91             [-1, 256, 6, 4, 4]        [-1, 256, 6, 4, 4]        --                        --                        --
|    |    |    |    |    └─Conv3d: 6-298           [-1, 256, 6, 4, 4]        [-1, 256, 6, 4, 4]        65,536                    [256, 256, 1, 1, 1]       6,291,456
|    |    |    |    |    └─BatchNorm3d: 6-299      [-1, 256, 6, 4, 4]        [-1, 256, 6, 4, 4]        512                       [256]                     256
|    |    |    |    |    └─ReLU6: 6-300            [-1, 256, 6, 4, 4]        [-1, 256, 6, 4, 4]        --                        --                        --
|    |    |    └─Upsample: 4-77                    [-1, 256, 6, 4, 4]        [-1, 256, 6, 8, 8]        --                        --                        --
|    |    └─Deconv: 3-25                           [-1, 256, 6, 8, 8]        [-1, 128, 6, 16, 16]      --                        --                        --
|    |    |    └─BasicConv3d: 4-78                 [-1, 256, 6, 8, 8]        [-1, 128, 6, 8, 8]        --                        --                        --
|    |    |    |    └─ConvBNReLU: 5-92             [-1, 256, 6, 8, 8]        [-1, 128, 6, 8, 8]        --                        --                        --
|    |    |    |    |    └─Conv3d: 6-301           [-1, 256, 6, 8, 8]        [-1, 128, 6, 8, 8]        884,736                   [256, 128, 3, 3, 3]       339,738,624
|    |    |    |    |    └─BatchNorm3d: 6-302      [-1, 128, 6, 8, 8]        [-1, 128, 6, 8, 8]        256                       [128]                     128
|    |    |    |    |    └─ReLU6: 6-303            [-1, 128, 6, 8, 8]        [-1, 128, 6, 8, 8]        --                        --                        --
|    |    |    └─SepConv3d: 4-79                   [-1, 128, 6, 8, 8]        [-1, 128, 6, 8, 8]        --                        --                        --
|    |    |    |    └─ConvBNReLU: 5-93             [-1, 128, 6, 8, 8]        [-1, 128, 6, 8, 8]        --                        --                        --
|    |    |    |    |    └─Conv3d: 6-304           [-1, 128, 6, 8, 8]        [-1, 128, 6, 8, 8]        3,456                     [1, 128, 3, 3, 3]         1,327,104
|    |    |    |    |    └─BatchNorm3d: 6-305      [-1, 128, 6, 8, 8]        [-1, 128, 6, 8, 8]        256                       [128]                     128
|    |    |    |    |    └─ReLU6: 6-306            [-1, 128, 6, 8, 8]        [-1, 128, 6, 8, 8]        --                        --                        --
|    |    |    |    └─ConvBNReLU: 5-94             [-1, 128, 6, 8, 8]        [-1, 128, 6, 8, 8]        --                        --                        --
|    |    |    |    |    └─Conv3d: 6-307           [-1, 128, 6, 8, 8]        [-1, 128, 6, 8, 8]        16,384                    [128, 128, 1, 1, 1]       6,291,456
|    |    |    |    |    └─BatchNorm3d: 6-308      [-1, 128, 6, 8, 8]        [-1, 128, 6, 8, 8]        256                       [128]                     128
|    |    |    |    |    └─ReLU6: 6-309            [-1, 128, 6, 8, 8]        [-1, 128, 6, 8, 8]        --                        --                        --
|    |    |    └─SepConv3d: 4-80                   [-1, 128, 6, 8, 8]        [-1, 128, 6, 8, 8]        --                        --                        --
|    |    |    |    └─ConvBNReLU: 5-95             [-1, 128, 6, 8, 8]        [-1, 128, 6, 8, 8]        --                        --                        --
|    |    |    |    |    └─Conv3d: 6-310           [-1, 128, 6, 8, 8]        [-1, 128, 6, 8, 8]        3,456                     [1, 128, 3, 3, 3]         1,327,104
|    |    |    |    |    └─BatchNorm3d: 6-311      [-1, 128, 6, 8, 8]        [-1, 128, 6, 8, 8]        256                       [128]                     128
|    |    |    |    |    └─ReLU6: 6-312            [-1, 128, 6, 8, 8]        [-1, 128, 6, 8, 8]        --                        --                        --
|    |    |    |    └─ConvBNReLU: 5-96             [-1, 128, 6, 8, 8]        [-1, 128, 6, 8, 8]        --                        --                        --
|    |    |    |    |    └─Conv3d: 6-313           [-1, 128, 6, 8, 8]        [-1, 128, 6, 8, 8]        16,384                    [128, 128, 1, 1, 1]       6,291,456
|    |    |    |    |    └─BatchNorm3d: 6-314      [-1, 128, 6, 8, 8]        [-1, 128, 6, 8, 8]        256                       [128]                     128
|    |    |    |    |    └─ReLU6: 6-315            [-1, 128, 6, 8, 8]        [-1, 128, 6, 8, 8]        --                        --                        --
|    |    |    └─Upsample: 4-81                    [-1, 128, 6, 8, 8]        [-1, 128, 6, 16, 16]      --                        --                        --
|    |    └─Deconv: 3-26                           [-1, 128, 6, 16, 16]      [-1, 64, 12, 32, 32]      --                        --                        --
|    |    |    └─BasicConv3d: 4-82                 [-1, 128, 6, 16, 16]      [-1, 64, 6, 16, 16]       --                        --                        --
|    |    |    |    └─ConvBNReLU: 5-97             [-1, 128, 6, 16, 16]      [-1, 64, 6, 16, 16]       --                        --                        --
|    |    |    |    |    └─Conv3d: 6-316           [-1, 128, 6, 16, 16]      [-1, 64, 6, 16, 16]       221,184                   [128, 64, 3, 3, 3]        339,738,624
|    |    |    |    |    └─BatchNorm3d: 6-317      [-1, 64, 6, 16, 16]       [-1, 64, 6, 16, 16]       128                       [64]                      64
|    |    |    |    |    └─ReLU6: 6-318            [-1, 64, 6, 16, 16]       [-1, 64, 6, 16, 16]       --                        --                        --
|    |    |    └─SepConv3d: 4-83                   [-1, 64, 6, 16, 16]       [-1, 64, 6, 16, 16]       --                        --                        --
|    |    |    |    └─ConvBNReLU: 5-98             [-1, 64, 6, 16, 16]       [-1, 64, 6, 16, 16]       --                        --                        --
|    |    |    |    |    └─Conv3d: 6-319           [-1, 64, 6, 16, 16]       [-1, 64, 6, 16, 16]       1,728                     [1, 64, 3, 3, 3]          2,654,208
|    |    |    |    |    └─BatchNorm3d: 6-320      [-1, 64, 6, 16, 16]       [-1, 64, 6, 16, 16]       128                       [64]                      64
|    |    |    |    |    └─ReLU6: 6-321            [-1, 64, 6, 16, 16]       [-1, 64, 6, 16, 16]       --                        --                        --
|    |    |    |    └─ConvBNReLU: 5-99             [-1, 64, 6, 16, 16]       [-1, 64, 6, 16, 16]       --                        --                        --
|    |    |    |    |    └─Conv3d: 6-322           [-1, 64, 6, 16, 16]       [-1, 64, 6, 16, 16]       4,096                     [64, 64, 1, 1, 1]         6,291,456
|    |    |    |    |    └─BatchNorm3d: 6-323      [-1, 64, 6, 16, 16]       [-1, 64, 6, 16, 16]       128                       [64]                      64
|    |    |    |    |    └─ReLU6: 6-324            [-1, 64, 6, 16, 16]       [-1, 64, 6, 16, 16]       --                        --                        --
|    |    |    └─Upsample: 4-84                    [-1, 64, 6, 16, 16]       [-1, 64, 12, 32, 32]      --                        --                        --
|    |    └─Deconv: 3-27                           [-1, 64, 12, 32, 32]      [-1, 8, 24, 64, 64]       --                        --                        --
|    |    |    └─BasicConv3d: 4-85                 [-1, 64, 12, 32, 32]      [-1, 8, 12, 32, 32]       --                        --                        --
|    |    |    |    └─ConvBNReLU: 5-100            [-1, 64, 12, 32, 32]      [-1, 8, 12, 32, 32]       --                        --                        --
|    |    |    |    |    └─Conv3d: 6-325           [-1, 64, 12, 32, 32]      [-1, 8, 12, 32, 32]       13,824                    [64, 8, 3, 3, 3]          169,869,312
|    |    |    |    |    └─BatchNorm3d: 6-326      [-1, 8, 12, 32, 32]       [-1, 8, 12, 32, 32]       16                        [8]                       8
|    |    |    |    |    └─ReLU6: 6-327            [-1, 8, 12, 32, 32]       [-1, 8, 12, 32, 32]       --                        --                        --
|    |    |    └─SepConv3d: 4-86                   [-1, 8, 12, 32, 32]       [-1, 8, 12, 32, 32]       --                        --                        --
|    |    |    |    └─ConvBNReLU: 5-101            [-1, 8, 12, 32, 32]       [-1, 8, 12, 32, 32]       --                        --                        --
|    |    |    |    |    └─Conv3d: 6-328           [-1, 8, 12, 32, 32]       [-1, 8, 12, 32, 32]       216                       [1, 8, 3, 3, 3]           2,654,208
|    |    |    |    |    └─BatchNorm3d: 6-329      [-1, 8, 12, 32, 32]       [-1, 8, 12, 32, 32]       16                        [8]                       8
|    |    |    |    |    └─ReLU6: 6-330            [-1, 8, 12, 32, 32]       [-1, 8, 12, 32, 32]       --                        --                        --
|    |    |    |    └─ConvBNReLU: 5-102            [-1, 8, 12, 32, 32]       [-1, 8, 12, 32, 32]       --                        --                        --
|    |    |    |    |    └─Conv3d: 6-331           [-1, 8, 12, 32, 32]       [-1, 8, 12, 32, 32]       64                        [8, 8, 1, 1, 1]           786,432
|    |    |    |    |    └─BatchNorm3d: 6-332      [-1, 8, 12, 32, 32]       [-1, 8, 12, 32, 32]       16                        [8]                       8
|    |    |    |    |    └─ReLU6: 6-333            [-1, 8, 12, 32, 32]       [-1, 8, 12, 32, 32]       --                        --                        --
|    |    |    └─Upsample: 4-87                    [-1, 8, 12, 32, 32]       [-1, 8, 24, 64, 64]       --                        --                        --
|    |    └─Deconv: 3-28                           [-1, 8, 24, 64, 64]       [-1, 3, 48, 128, 128]     --                        --                        --
|    |    |    └─BasicConv3d: 4-88                 [-1, 8, 24, 64, 64]       [-1, 3, 24, 64, 64]       --                        --                        --
|    |    |    |    └─ConvBNReLU: 5-103            [-1, 8, 24, 64, 64]       [-1, 3, 24, 64, 64]       --                        --                        --
|    |    |    |    |    └─Conv3d: 6-334           [-1, 8, 24, 64, 64]       [-1, 3, 24, 64, 64]       648                       [8, 3, 3, 3, 3]           63,700,992
|    |    |    |    |    └─BatchNorm3d: 6-335      [-1, 3, 24, 64, 64]       [-1, 3, 24, 64, 64]       6                         [3]                       3
|    |    |    |    |    └─ReLU6: 6-336            [-1, 3, 24, 64, 64]       [-1, 3, 24, 64, 64]       --                        --                        --
|    |    |    └─SepConv3d: 4-89                   [-1, 3, 24, 64, 64]       [-1, 3, 24, 64, 64]       --                        --                        --
|    |    |    |    └─ConvBNReLU: 5-104            [-1, 3, 24, 64, 64]       [-1, 3, 24, 64, 64]       --                        --                        --
|    |    |    |    |    └─Conv3d: 6-337           [-1, 3, 24, 64, 64]       [-1, 3, 24, 64, 64]       81                        [1, 3, 3, 3, 3]           7,962,624
|    |    |    |    |    └─BatchNorm3d: 6-338      [-1, 3, 24, 64, 64]       [-1, 3, 24, 64, 64]       6                         [3]                       3
|    |    |    |    |    └─ReLU6: 6-339            [-1, 3, 24, 64, 64]       [-1, 3, 24, 64, 64]       --                        --                        --
|    |    |    |    └─ConvBNReLU: 5-105            [-1, 3, 24, 64, 64]       [-1, 3, 24, 64, 64]       --                        --                        --
|    |    |    |    |    └─Conv3d: 6-340           [-1, 3, 24, 64, 64]       [-1, 3, 24, 64, 64]       9                         [3, 3, 1, 1, 1]           884,736
|    |    |    |    |    └─BatchNorm3d: 6-341      [-1, 3, 24, 64, 64]       [-1, 3, 24, 64, 64]       6                         [3]                       3
|    |    |    |    |    └─ReLU6: 6-342            [-1, 3, 24, 64, 64]       [-1, 3, 24, 64, 64]       --                        --                        --
|    |    |    └─Upsample: 4-90                    [-1, 3, 24, 64, 64]       [-1, 3, 48, 128, 128]     --                        --                        --
|    └─Conv3d: 2-11                                [-1, 3, 48, 128, 128]     [-1, 2, 48, 128, 128]     8                         [3, 2, 1, 1, 1]           4,718,592
├─Decoder_3D: 1-5                                  [-1, 1024, 6, 4, 4]       [-1, 2, 48, 128, 128]     --                        --                        --
|    └─Sequential: 2-12                            [-1, 1024, 6, 4, 4]       [-1, 3, 48, 128, 128]     --                        --                        --
|    |    └─Deconv: 3-29                           [-1, 1024, 6, 4, 4]       [-1, 256, 6, 8, 8]        --                        --                        --
|    |    |    └─BasicConv3d: 4-91                 [-1, 1024, 6, 4, 4]       [-1, 256, 6, 4, 4]        --                        --                        --
|    |    |    |    └─ConvBNReLU: 5-106            [-1, 1024, 6, 4, 4]       [-1, 256, 6, 4, 4]        --                        --                        --
|    |    |    |    |    └─Conv3d: 6-343           [-1, 1024, 6, 4, 4]       [-1, 256, 6, 4, 4]        7,077,888                 [1024, 256, 3, 3, 3]      679,477,248
|    |    |    |    |    └─BatchNorm3d: 6-344      [-1, 256, 6, 4, 4]        [-1, 256, 6, 4, 4]        512                       [256]                     256
|    |    |    |    |    └─ReLU6: 6-345            [-1, 256, 6, 4, 4]        [-1, 256, 6, 4, 4]        --                        --                        --
|    |    |    └─SepConv3d: 4-92                   [-1, 256, 6, 4, 4]        [-1, 256, 6, 4, 4]        --                        --                        --
|    |    |    |    └─ConvBNReLU: 5-107            [-1, 256, 6, 4, 4]        [-1, 256, 6, 4, 4]        --                        --                        --
|    |    |    |    |    └─Conv3d: 6-346           [-1, 256, 6, 4, 4]        [-1, 256, 6, 4, 4]        6,912                     [1, 256, 3, 3, 3]         663,552
|    |    |    |    |    └─BatchNorm3d: 6-347      [-1, 256, 6, 4, 4]        [-1, 256, 6, 4, 4]        512                       [256]                     256
|    |    |    |    |    └─ReLU6: 6-348            [-1, 256, 6, 4, 4]        [-1, 256, 6, 4, 4]        --                        --                        --
|    |    |    |    └─ConvBNReLU: 5-108            [-1, 256, 6, 4, 4]        [-1, 256, 6, 4, 4]        --                        --                        --
|    |    |    |    |    └─Conv3d: 6-349           [-1, 256, 6, 4, 4]        [-1, 256, 6, 4, 4]        65,536                    [256, 256, 1, 1, 1]       6,291,456
|    |    |    |    |    └─BatchNorm3d: 6-350      [-1, 256, 6, 4, 4]        [-1, 256, 6, 4, 4]        512                       [256]                     256
|    |    |    |    |    └─ReLU6: 6-351            [-1, 256, 6, 4, 4]        [-1, 256, 6, 4, 4]        --                        --                        --
|    |    |    └─SepConv3d: 4-93                   [-1, 256, 6, 4, 4]        [-1, 256, 6, 4, 4]        --                        --                        --
|    |    |    |    └─ConvBNReLU: 5-109            [-1, 256, 6, 4, 4]        [-1, 256, 6, 4, 4]        --                        --                        --
|    |    |    |    |    └─Conv3d: 6-352           [-1, 256, 6, 4, 4]        [-1, 256, 6, 4, 4]        6,912                     [1, 256, 3, 3, 3]         663,552
|    |    |    |    |    └─BatchNorm3d: 6-353      [-1, 256, 6, 4, 4]        [-1, 256, 6, 4, 4]        512                       [256]                     256
|    |    |    |    |    └─ReLU6: 6-354            [-1, 256, 6, 4, 4]        [-1, 256, 6, 4, 4]        --                        --                        --
|    |    |    |    └─ConvBNReLU: 5-110            [-1, 256, 6, 4, 4]        [-1, 256, 6, 4, 4]        --                        --                        --
|    |    |    |    |    └─Conv3d: 6-355           [-1, 256, 6, 4, 4]        [-1, 256, 6, 4, 4]        65,536                    [256, 256, 1, 1, 1]       6,291,456
|    |    |    |    |    └─BatchNorm3d: 6-356      [-1, 256, 6, 4, 4]        [-1, 256, 6, 4, 4]        512                       [256]                     256
|    |    |    |    |    └─ReLU6: 6-357            [-1, 256, 6, 4, 4]        [-1, 256, 6, 4, 4]        --                        --                        --
|    |    |    └─Upsample: 4-94                    [-1, 256, 6, 4, 4]        [-1, 256, 6, 8, 8]        --                        --                        --
|    |    └─Deconv: 3-30                           [-1, 256, 6, 8, 8]        [-1, 128, 6, 16, 16]      --                        --                        --
|    |    |    └─BasicConv3d: 4-95                 [-1, 256, 6, 8, 8]        [-1, 128, 6, 8, 8]        --                        --                        --
|    |    |    |    └─ConvBNReLU: 5-111            [-1, 256, 6, 8, 8]        [-1, 128, 6, 8, 8]        --                        --                        --
|    |    |    |    |    └─Conv3d: 6-358           [-1, 256, 6, 8, 8]        [-1, 128, 6, 8, 8]        884,736                   [256, 128, 3, 3, 3]       339,738,624
|    |    |    |    |    └─BatchNorm3d: 6-359      [-1, 128, 6, 8, 8]        [-1, 128, 6, 8, 8]        256                       [128]                     128
|    |    |    |    |    └─ReLU6: 6-360            [-1, 128, 6, 8, 8]        [-1, 128, 6, 8, 8]        --                        --                        --
|    |    |    └─SepConv3d: 4-96                   [-1, 128, 6, 8, 8]        [-1, 128, 6, 8, 8]        --                        --                        --
|    |    |    |    └─ConvBNReLU: 5-112            [-1, 128, 6, 8, 8]        [-1, 128, 6, 8, 8]        --                        --                        --
|    |    |    |    |    └─Conv3d: 6-361           [-1, 128, 6, 8, 8]        [-1, 128, 6, 8, 8]        3,456                     [1, 128, 3, 3, 3]         1,327,104
|    |    |    |    |    └─BatchNorm3d: 6-362      [-1, 128, 6, 8, 8]        [-1, 128, 6, 8, 8]        256                       [128]                     128
|    |    |    |    |    └─ReLU6: 6-363            [-1, 128, 6, 8, 8]        [-1, 128, 6, 8, 8]        --                        --                        --
|    |    |    |    └─ConvBNReLU: 5-113            [-1, 128, 6, 8, 8]        [-1, 128, 6, 8, 8]        --                        --                        --
|    |    |    |    |    └─Conv3d: 6-364           [-1, 128, 6, 8, 8]        [-1, 128, 6, 8, 8]        16,384                    [128, 128, 1, 1, 1]       6,291,456
|    |    |    |    |    └─BatchNorm3d: 6-365      [-1, 128, 6, 8, 8]        [-1, 128, 6, 8, 8]        256                       [128]                     128
|    |    |    |    |    └─ReLU6: 6-366            [-1, 128, 6, 8, 8]        [-1, 128, 6, 8, 8]        --                        --                        --
|    |    |    └─SepConv3d: 4-97                   [-1, 128, 6, 8, 8]        [-1, 128, 6, 8, 8]        --                        --                        --
|    |    |    |    └─ConvBNReLU: 5-114            [-1, 128, 6, 8, 8]        [-1, 128, 6, 8, 8]        --                        --                        --
|    |    |    |    |    └─Conv3d: 6-367           [-1, 128, 6, 8, 8]        [-1, 128, 6, 8, 8]        3,456                     [1, 128, 3, 3, 3]         1,327,104
|    |    |    |    |    └─BatchNorm3d: 6-368      [-1, 128, 6, 8, 8]        [-1, 128, 6, 8, 8]        256                       [128]                     128
|    |    |    |    |    └─ReLU6: 6-369            [-1, 128, 6, 8, 8]        [-1, 128, 6, 8, 8]        --                        --                        --
|    |    |    |    └─ConvBNReLU: 5-115            [-1, 128, 6, 8, 8]        [-1, 128, 6, 8, 8]        --                        --                        --
|    |    |    |    |    └─Conv3d: 6-370           [-1, 128, 6, 8, 8]        [-1, 128, 6, 8, 8]        16,384                    [128, 128, 1, 1, 1]       6,291,456
|    |    |    |    |    └─BatchNorm3d: 6-371      [-1, 128, 6, 8, 8]        [-1, 128, 6, 8, 8]        256                       [128]                     128
|    |    |    |    |    └─ReLU6: 6-372            [-1, 128, 6, 8, 8]        [-1, 128, 6, 8, 8]        --                        --                        --
|    |    |    └─Upsample: 4-98                    [-1, 128, 6, 8, 8]        [-1, 128, 6, 16, 16]      --                        --                        --
|    |    └─Deconv: 3-31                           [-1, 128, 6, 16, 16]      [-1, 64, 12, 32, 32]      --                        --                        --
|    |    |    └─BasicConv3d: 4-99                 [-1, 128, 6, 16, 16]      [-1, 64, 6, 16, 16]       --                        --                        --
|    |    |    |    └─ConvBNReLU: 5-116            [-1, 128, 6, 16, 16]      [-1, 64, 6, 16, 16]       --                        --                        --
|    |    |    |    |    └─Conv3d: 6-373           [-1, 128, 6, 16, 16]      [-1, 64, 6, 16, 16]       221,184                   [128, 64, 3, 3, 3]        339,738,624
|    |    |    |    |    └─BatchNorm3d: 6-374      [-1, 64, 6, 16, 16]       [-1, 64, 6, 16, 16]       128                       [64]                      64
|    |    |    |    |    └─ReLU6: 6-375            [-1, 64, 6, 16, 16]       [-1, 64, 6, 16, 16]       --                        --                        --
|    |    |    └─SepConv3d: 4-100                  [-1, 64, 6, 16, 16]       [-1, 64, 6, 16, 16]       --                        --                        --
|    |    |    |    └─ConvBNReLU: 5-117            [-1, 64, 6, 16, 16]       [-1, 64, 6, 16, 16]       --                        --                        --
|    |    |    |    |    └─Conv3d: 6-376           [-1, 64, 6, 16, 16]       [-1, 64, 6, 16, 16]       1,728                     [1, 64, 3, 3, 3]          2,654,208
|    |    |    |    |    └─BatchNorm3d: 6-377      [-1, 64, 6, 16, 16]       [-1, 64, 6, 16, 16]       128                       [64]                      64
|    |    |    |    |    └─ReLU6: 6-378            [-1, 64, 6, 16, 16]       [-1, 64, 6, 16, 16]       --                        --                        --
|    |    |    |    └─ConvBNReLU: 5-118            [-1, 64, 6, 16, 16]       [-1, 64, 6, 16, 16]       --                        --                        --
|    |    |    |    |    └─Conv3d: 6-379           [-1, 64, 6, 16, 16]       [-1, 64, 6, 16, 16]       4,096                     [64, 64, 1, 1, 1]         6,291,456
|    |    |    |    |    └─BatchNorm3d: 6-380      [-1, 64, 6, 16, 16]       [-1, 64, 6, 16, 16]       128                       [64]                      64
|    |    |    |    |    └─ReLU6: 6-381            [-1, 64, 6, 16, 16]       [-1, 64, 6, 16, 16]       --                        --                        --
|    |    |    └─Upsample: 4-101                   [-1, 64, 6, 16, 16]       [-1, 64, 12, 32, 32]      --                        --                        --
|    |    └─Deconv: 3-32                           [-1, 64, 12, 32, 32]      [-1, 8, 24, 64, 64]       --                        --                        --
|    |    |    └─BasicConv3d: 4-102                [-1, 64, 12, 32, 32]      [-1, 8, 12, 32, 32]       --                        --                        --
|    |    |    |    └─ConvBNReLU: 5-119            [-1, 64, 12, 32, 32]      [-1, 8, 12, 32, 32]       --                        --                        --
|    |    |    |    |    └─Conv3d: 6-382           [-1, 64, 12, 32, 32]      [-1, 8, 12, 32, 32]       13,824                    [64, 8, 3, 3, 3]          169,869,312
|    |    |    |    |    └─BatchNorm3d: 6-383      [-1, 8, 12, 32, 32]       [-1, 8, 12, 32, 32]       16                        [8]                       8
|    |    |    |    |    └─ReLU6: 6-384            [-1, 8, 12, 32, 32]       [-1, 8, 12, 32, 32]       --                        --                        --
|    |    |    └─SepConv3d: 4-103                  [-1, 8, 12, 32, 32]       [-1, 8, 12, 32, 32]       --                        --                        --
|    |    |    |    └─ConvBNReLU: 5-120            [-1, 8, 12, 32, 32]       [-1, 8, 12, 32, 32]       --                        --                        --
|    |    |    |    |    └─Conv3d: 6-385           [-1, 8, 12, 32, 32]       [-1, 8, 12, 32, 32]       216                       [1, 8, 3, 3, 3]           2,654,208
|    |    |    |    |    └─BatchNorm3d: 6-386      [-1, 8, 12, 32, 32]       [-1, 8, 12, 32, 32]       16                        [8]                       8
|    |    |    |    |    └─ReLU6: 6-387            [-1, 8, 12, 32, 32]       [-1, 8, 12, 32, 32]       --                        --                        --
|    |    |    |    └─ConvBNReLU: 5-121            [-1, 8, 12, 32, 32]       [-1, 8, 12, 32, 32]       --                        --                        --
|    |    |    |    |    └─Conv3d: 6-388           [-1, 8, 12, 32, 32]       [-1, 8, 12, 32, 32]       64                        [8, 8, 1, 1, 1]           786,432
|    |    |    |    |    └─BatchNorm3d: 6-389      [-1, 8, 12, 32, 32]       [-1, 8, 12, 32, 32]       16                        [8]                       8
|    |    |    |    |    └─ReLU6: 6-390            [-1, 8, 12, 32, 32]       [-1, 8, 12, 32, 32]       --                        --                        --
|    |    |    └─Upsample: 4-104                   [-1, 8, 12, 32, 32]       [-1, 8, 24, 64, 64]       --                        --                        --
|    |    └─Deconv: 3-33                           [-1, 8, 24, 64, 64]       [-1, 3, 48, 128, 128]     --                        --                        --
|    |    |    └─BasicConv3d: 4-105                [-1, 8, 24, 64, 64]       [-1, 3, 24, 64, 64]       --                        --                        --
|    |    |    |    └─ConvBNReLU: 5-122            [-1, 8, 24, 64, 64]       [-1, 3, 24, 64, 64]       --                        --                        --
|    |    |    |    |    └─Conv3d: 6-391           [-1, 8, 24, 64, 64]       [-1, 3, 24, 64, 64]       648                       [8, 3, 3, 3, 3]           63,700,992
|    |    |    |    |    └─BatchNorm3d: 6-392      [-1, 3, 24, 64, 64]       [-1, 3, 24, 64, 64]       6                         [3]                       3
|    |    |    |    |    └─ReLU6: 6-393            [-1, 3, 24, 64, 64]       [-1, 3, 24, 64, 64]       --                        --                        --
|    |    |    └─SepConv3d: 4-106                  [-1, 3, 24, 64, 64]       [-1, 3, 24, 64, 64]       --                        --                        --
|    |    |    |    └─ConvBNReLU: 5-123            [-1, 3, 24, 64, 64]       [-1, 3, 24, 64, 64]       --                        --                        --
|    |    |    |    |    └─Conv3d: 6-394           [-1, 3, 24, 64, 64]       [-1, 3, 24, 64, 64]       81                        [1, 3, 3, 3, 3]           7,962,624
|    |    |    |    |    └─BatchNorm3d: 6-395      [-1, 3, 24, 64, 64]       [-1, 3, 24, 64, 64]       6                         [3]                       3
|    |    |    |    |    └─ReLU6: 6-396            [-1, 3, 24, 64, 64]       [-1, 3, 24, 64, 64]       --                        --                        --
|    |    |    |    └─ConvBNReLU: 5-124            [-1, 3, 24, 64, 64]       [-1, 3, 24, 64, 64]       --                        --                        --
|    |    |    |    |    └─Conv3d: 6-397           [-1, 3, 24, 64, 64]       [-1, 3, 24, 64, 64]       9                         [3, 3, 1, 1, 1]           884,736
|    |    |    |    |    └─BatchNorm3d: 6-398      [-1, 3, 24, 64, 64]       [-1, 3, 24, 64, 64]       6                         [3]                       3
|    |    |    |    |    └─ReLU6: 6-399            [-1, 3, 24, 64, 64]       [-1, 3, 24, 64, 64]       --                        --                        --
|    |    |    └─Upsample: 4-107                   [-1, 3, 24, 64, 64]       [-1, 3, 48, 128, 128]     --                        --                        --
|    └─Conv3d: 2-13                                [-1, 3, 48, 128, 128]     [-1, 2, 48, 128, 128]     8                         [3, 2, 1, 1, 1]           4,718,592
├─Conv3d: 1-6                                      [-1, 8, 48, 128, 128]     [-1, 2, 48, 128, 128]     18                        [8, 2, 1, 1, 1]           12,582,912
===============================================================================================================================================================================
Total params: 25,658,434
Trainable params: 25,658,434
Non-trainable params: 0
Total mult-adds (G): 24.44
===============================================================================================================================================================================
…
